{"format": "graph-model", "generatedBy": "2.5.0", "convertedBy": "TensorFlow.js Converter v3.8.0", "signature": {"inputs": {"z_sampling": {"name": "z_sampling:0", "dtype": "DT_FLOAT", "tensorShape": {"dim": [{"size": "-1"}, {"size": "512"}]}}}, "outputs": {"Identity_2:0": {"name": "Identity_2:0", "dtype": "DT_FLOAT", "tensorShape": {"dim": [{"size": "-1"}, {"size": "32"}, {"size": "9"}]}}, "Identity:0": {"name": "Identity:0", "dtype": "DT_FLOAT", "tensorShape": {"dim": [{"size": "-1"}, {"size": "32"}, {"size": "9"}]}}, "Identity_1:0": {"name": "Identity_1:0", "dtype": "DT_FLOAT", "tensorShape": {"dim": [{"size": "-1"}, {"size": "32"}, {"size": "9"}]}}}}, "modelTopology": {"node": [{"name": "StatefulPartitionedCall/decoder/lstm_31/TensorArrayV2Stack/TensorListStack/element_shape", "op": "Const", "attr": {"value": {"tensor": {"dtype": "DT_INT32", "tensorShape": {"dim": [{"size": "2"}]}}}, "dtype": {"type": "DT_INT32"}}}, {"name": "StatefulPartitionedCall/decoder/lstm_31/transpose_1/perm", "op": "Const", "attr": {"value": {"tensor": {"dtype": "DT_INT32", "tensorShape": {"dim": [{"size": "3"}]}}}, "dtype": {"type": "DT_INT32"}}}, {"name": "StatefulPartitionedCall/decoder/lstm_33/TensorArrayV2Stack/TensorListStack/element_shape", "op": "Const", "attr": {"dtype": {"type": "DT_INT32"}, "value": {"tensor": {"dtype": "DT_INT32", "tensorShape": {"dim": [{"size": "2"}]}}}}}, {"name": "StatefulPartitionedCall/decoder/lstm_33/transpose_1/perm", "op": "Const", "attr": {"dtype": {"type": "DT_INT32"}, "value": {"tensor": {"dtype": "DT_INT32", "tensorShape": {"dim": [{"size": "3"}]}}}}}, {"name": "StatefulPartitionedCall/decoder/lstm_35/PartitionedCall/while/loop_counter", "op": "Const", "attr": {"dtype": {"type": "DT_INT32"}, "value": {"tensor": {"dtype": "DT_INT32", "tensorShape": {}}}}}, {"name": "StatefulPartitionedCall/decoder/lstm_35/PartitionedCall/while/maximum_iterations", "op": "Const", "attr": {"value": {"tensor": {"dtype": "DT_INT32", "tensorShape": {}}}, "dtype": {"type": "DT_INT32"}}}, {"name": "StatefulPartitionedCall/decoder/lstm_35/PartitionedCall/time", "op": "Const", "attr": {"dtype": {"type": "DT_INT32"}, "value": {"tensor": {"dtype": "DT_INT32", "tensorShape": {}}}}}, {"name": "StatefulPartitionedCall/decoder/lstm_35/PartitionedCall/TensorArrayV2_1/element_shape", "op": "Const", "attr": {"dtype": {"type": "DT_INT32"}, "value": {"tensor": {"dtype": "DT_INT32", "tensorShape": {"dim": [{"size": "2"}]}}}}}, {"name": "StatefulPartitionedCall/decoder/lstm_35/zeros/packed/1", "op": "Const", "attr": {"value": {"tensor": {"dtype": "DT_INT32", "tensorShape": {}}}, "dtype": {"type": "DT_INT32"}}}, {"name": "StatefulPartitionedCall/decoder/lstm_35/zeros/Const", "op": "Const", "attr": {"value": {"tensor": {"dtype": "DT_FLOAT", "tensorShape": {}}}, "dtype": {"type": "DT_FLOAT"}}}, {"name": "StatefulPartitionedCall/decoder/lstm_34/PartitionedCall/transpose_1/perm", "op": "Const", "attr": {"dtype": {"type": "DT_INT32"}, "value": {"tensor": {"dtype": "DT_INT32", "tensorShape": {"dim": [{"size": "3"}]}}}}}, {"name": "StatefulPartitionedCall/decoder/lstm_35/strided_slice/stack", "op": "Const", "attr": {"dtype": {"type": "DT_INT32"}, "value": {"tensor": {"dtype": "DT_INT32", "tensorShape": {"dim": [{"size": "1"}]}}}}}, {"name": "StatefulPartitionedCall/decoder/lstm_35/strided_slice/stack_1", "op": "Const", "attr": {"value": {"tensor": {"dtype": "DT_INT32", "tensorShape": {"dim": [{"size": "1"}]}}}, "dtype": {"type": "DT_INT32"}}}, {"name": "StatefulPartitionedCall/decoder/lstm_35/strided_slice/stack_2", "op": "Const", "attr": {"value": {"tensor": {"dtype": "DT_INT32", "tensorShape": {"dim": [{"size": "1"}]}}}, "dtype": {"type": "DT_INT32"}}}, {"name": "StatefulPartitionedCall/decoder/lstm_35/zeros_1/packed/1", "op": "Const", "attr": {"dtype": {"type": "DT_INT32"}, "value": {"tensor": {"dtype": "DT_INT32", "tensorShape": {}}}}}, {"name": "StatefulPartitionedCall/decoder/lstm_35/zeros_1/Const", "op": "Const", "attr": {"dtype": {"type": "DT_FLOAT"}, "value": {"tensor": {"dtype": "DT_FLOAT", "tensorShape": {}}}}}, {"name": "StatefulPartitionedCall/decoder/lstm_35/PartitionedCall/strided_slice/stack", "op": "Const", "attr": {"value": {"tensor": {"dtype": "DT_INT32", "tensorShape": {"dim": [{"size": "1"}]}}}, "dtype": {"type": "DT_INT32"}}}, {"name": "StatefulPartitionedCall/decoder/lstm_35/PartitionedCall/strided_slice/stack_1", "op": "Const", "attr": {"value": {"tensor": {"dtype": "DT_INT32", "tensorShape": {"dim": [{"size": "1"}]}}}, "dtype": {"type": "DT_INT32"}}}, {"name": "StatefulPartitionedCall/decoder/lstm_35/PartitionedCall/strided_slice/stack_2", "op": "Const", "attr": {"dtype": {"type": "DT_INT32"}, "value": {"tensor": {"dtype": "DT_INT32", "tensorShape": {"dim": [{"size": "1"}]}}}}}, {"name": "StatefulPartitionedCall/decoder/lstm_34/PartitionedCall/while/loop_counter", "op": "Const", "attr": {"value": {"tensor": {"dtype": "DT_INT32", "tensorShape": {}}}, "dtype": {"type": "DT_INT32"}}}, {"name": "StatefulPartitionedCall/decoder/lstm_34/PartitionedCall/while/maximum_iterations", "op": "Const", "attr": {"dtype": {"type": "DT_INT32"}, "value": {"tensor": {"dtype": "DT_INT32", "tensorShape": {}}}}}, {"name": "StatefulPartitionedCall/decoder/lstm_34/PartitionedCall/time", "op": "Const", "attr": {"dtype": {"type": "DT_INT32"}, "value": {"tensor": {"dtype": "DT_INT32", "tensorShape": {}}}}}, {"name": "StatefulPartitionedCall/decoder/lstm_34/PartitionedCall/TensorArrayV2_1/element_shape", "op": "Const", "attr": {"dtype": {"type": "DT_INT32"}, "value": {"tensor": {"dtype": "DT_INT32", "tensorShape": {"dim": [{"size": "2"}]}}}}}, {"name": "StatefulPartitionedCall/decoder/lstm_34/zeros/packed/1", "op": "Const", "attr": {"value": {"tensor": {"dtype": "DT_INT32", "tensorShape": {}}}, "dtype": {"type": "DT_INT32"}}}, {"name": "StatefulPartitionedCall/decoder/lstm_34/zeros/Const", "op": "Const", "attr": {"dtype": {"type": "DT_FLOAT"}, "value": {"tensor": {"dtype": "DT_FLOAT", "tensorShape": {}}}}}, {"name": "StatefulPartitionedCall/decoder/lstm_34/strided_slice/stack", "op": "Const", "attr": {"value": {"tensor": {"dtype": "DT_INT32", "tensorShape": {"dim": [{"size": "1"}]}}}, "dtype": {"type": "DT_INT32"}}}, {"name": "StatefulPartitionedCall/decoder/lstm_34/strided_slice/stack_1", "op": "Const", "attr": {"value": {"tensor": {"dtype": "DT_INT32", "tensorShape": {"dim": [{"size": "1"}]}}}, "dtype": {"type": "DT_INT32"}}}, {"name": "StatefulPartitionedCall/decoder/lstm_34/strided_slice/stack_2", "op": "Const", "attr": {"value": {"tensor": {"dtype": "DT_INT32", "tensorShape": {"dim": [{"size": "1"}]}}}, "dtype": {"type": "DT_INT32"}}}, {"name": "StatefulPartitionedCall/decoder/lstm_34/zeros_1/packed/1", "op": "Const", "attr": {"dtype": {"type": "DT_INT32"}, "value": {"tensor": {"dtype": "DT_INT32", "tensorShape": {}}}}}, {"name": "StatefulPartitionedCall/decoder/lstm_34/zeros_1/Const", "op": "Const", "attr": {"value": {"tensor": {"dtype": "DT_FLOAT", "tensorShape": {}}}, "dtype": {"type": "DT_FLOAT"}}}, {"name": "StatefulPartitionedCall/decoder/lstm_34/PartitionedCall/strided_slice/stack", "op": "Const", "attr": {"dtype": {"type": "DT_INT32"}, "value": {"tensor": {"dtype": "DT_INT32", "tensorShape": {"dim": [{"size": "1"}]}}}}}, {"name": "StatefulPartitionedCall/decoder/lstm_34/PartitionedCall/strided_slice/stack_1", "op": "Const", "attr": {"dtype": {"type": "DT_INT32"}, "value": {"tensor": {"dtype": "DT_INT32", "tensorShape": {"dim": [{"size": "1"}]}}}}}, {"name": "StatefulPartitionedCall/decoder/lstm_34/PartitionedCall/strided_slice/stack_2", "op": "Const", "attr": {"value": {"tensor": {"dtype": "DT_INT32", "tensorShape": {"dim": [{"size": "1"}]}}}, "dtype": {"type": "DT_INT32"}}}, {"name": "StatefulPartitionedCall/decoder/lstm_34/PartitionedCall/transpose/perm", "op": "Const", "attr": {"dtype": {"type": "DT_INT32"}, "value": {"tensor": {"dtype": "DT_INT32", "tensorShape": {"dim": [{"size": "3"}]}}}}}, {"name": "StatefulPartitionedCall/decoder/lstm_34/PartitionedCall/TensorArrayUnstack/TensorListFromTensor/element_shape", "op": "Const", "attr": {"value": {"tensor": {"dtype": "DT_INT32", "tensorShape": {"dim": [{"size": "2"}]}}}, "dtype": {"type": "DT_INT32"}}}, {"name": "StatefulPartitionedCall/decoder/lstm_34/Read/ReadVariableOp", "op": "Const", "attr": {"value": {"tensor": {"dtype": "DT_FLOAT", "tensorShape": {"dim": [{"size": "512"}, {"size": "2048"}]}}}, "dtype": {"type": "DT_FLOAT"}}}, {"name": "StatefulPartitionedCall/decoder/lstm_34/Read_1/ReadVariableOp", "op": "Const", "attr": {"value": {"tensor": {"dtype": "DT_FLOAT", "tensorShape": {"dim": [{"size": "512"}, {"size": "2048"}]}}}, "dtype": {"type": "DT_FLOAT"}}}, {"name": "StatefulPartitionedCall/decoder/lstm_34/Read_2/ReadVariableOp", "op": "Const", "attr": {"dtype": {"type": "DT_FLOAT"}, "value": {"tensor": {"dtype": "DT_FLOAT", "tensorShape": {"dim": [{"size": "2048"}]}}}}}, {"name": "StatefulPartitionedCall/decoder/lstm_34/PartitionedCall/TensorArrayV2Stack/TensorListStack/element_shape", "op": "Const", "attr": {"value": {"tensor": {"dtype": "DT_INT32", "tensorShape": {"dim": [{"size": "2"}]}}}, "dtype": {"type": "DT_INT32"}}}, {"name": "StatefulPartitionedCall/decoder/lstm_35/PartitionedCall/TensorArrayUnstack/TensorListFromTensor/element_shape", "op": "Const", "attr": {"dtype": {"type": "DT_INT32"}, "value": {"tensor": {"dtype": "DT_INT32", "tensorShape": {"dim": [{"size": "2"}]}}}}}, {"name": "StatefulPartitionedCall/decoder/lstm_35/Read/ReadVariableOp", "op": "Const", "attr": {"value": {"tensor": {"dtype": "DT_FLOAT", "tensorShape": {"dim": [{"size": "512"}, {"size": "36"}]}}}, "dtype": {"type": "DT_FLOAT"}}}, {"name": "StatefulPartitionedCall/decoder/lstm_35/Read_1/ReadVariableOp", "op": "Const", "attr": {"value": {"tensor": {"dtype": "DT_FLOAT", "tensorShape": {"dim": [{"size": "9"}, {"size": "36"}]}}}, "dtype": {"type": "DT_FLOAT"}}}, {"name": "StatefulPartitionedCall/decoder/lstm_35/Read_2/ReadVariableOp", "op": "Const", "attr": {"dtype": {"type": "DT_FLOAT"}, "value": {"tensor": {"dtype": "DT_FLOAT", "tensorShape": {"dim": [{"size": "36"}]}}}}}, {"name": "StatefulPartitionedCall/decoder/lstm_35/PartitionedCall/TensorArrayV2Stack/TensorListStack/element_shape", "op": "Const", "attr": {"dtype": {"type": "DT_INT32"}, "value": {"tensor": {"dtype": "DT_INT32", "tensorShape": {"dim": [{"size": "2"}]}}}}}, {"name": "StatefulPartitionedCall/decoder/lstm_35/PartitionedCall/transpose_1/perm", "op": "Const", "attr": {"value": {"tensor": {"dtype": "DT_INT32", "tensorShape": {"dim": [{"size": "3"}]}}}, "dtype": {"type": "DT_INT32"}}}, {"name": "StatefulPartitionedCall/decoder/lstm_31/while/loop_counter", "op": "Const", "attr": {"dtype": {"type": "DT_INT32"}, "value": {"tensor": {"dtype": "DT_INT32", "tensorShape": {}}}}}, {"name": "StatefulPartitionedCall/decoder/lstm_31/while/maximum_iterations", "op": "Const", "attr": {"dtype": {"type": "DT_INT32"}, "value": {"tensor": {"dtype": "DT_INT32", "tensorShape": {}}}}}, {"name": "StatefulPartitionedCall/decoder/lstm_31/time", "op": "Const", "attr": {"value": {"tensor": {"dtype": "DT_INT32", "tensorShape": {}}}, "dtype": {"type": "DT_INT32"}}}, {"name": "StatefulPartitionedCall/decoder/lstm_31/TensorArrayV2_1/element_shape", "op": "Const", "attr": {"value": {"tensor": {"dtype": "DT_INT32", "tensorShape": {"dim": [{"size": "2"}]}}}, "dtype": {"type": "DT_INT32"}}}, {"name": "StatefulPartitionedCall/decoder/lstm_31/zeros/packed/1", "op": "Const", "attr": {"dtype": {"type": "DT_INT32"}, "value": {"tensor": {"dtype": "DT_INT32", "tensorShape": {}}}}}, {"name": "StatefulPartitionedCall/decoder/lstm_31/zeros/Const", "op": "Const", "attr": {"dtype": {"type": "DT_FLOAT"}, "value": {"tensor": {"dtype": "DT_FLOAT", "tensorShape": {}}}}}, {"name": "StatefulPartitionedCall/decoder/lstm_30/PartitionedCall/transpose_1/perm", "op": "Const", "attr": {"dtype": {"type": "DT_INT32"}, "value": {"tensor": {"dtype": "DT_INT32", "tensorShape": {"dim": [{"size": "3"}]}}}}}, {"name": "StatefulPartitionedCall/decoder/lstm_31/strided_slice/stack", "op": "Const", "attr": {"value": {"tensor": {"dtype": "DT_INT32", "tensorShape": {"dim": [{"size": "1"}]}}}, "dtype": {"type": "DT_INT32"}}}, {"name": "StatefulPartitionedCall/decoder/lstm_31/strided_slice/stack_1", "op": "Const", "attr": {"dtype": {"type": "DT_INT32"}, "value": {"tensor": {"dtype": "DT_INT32", "tensorShape": {"dim": [{"size": "1"}]}}}}}, {"name": "StatefulPartitionedCall/decoder/lstm_31/strided_slice/stack_2", "op": "Const", "attr": {"value": {"tensor": {"dtype": "DT_INT32", "tensorShape": {"dim": [{"size": "1"}]}}}, "dtype": {"type": "DT_INT32"}}}, {"name": "StatefulPartitionedCall/decoder/lstm_31/zeros_1/packed/1", "op": "Const", "attr": {"dtype": {"type": "DT_INT32"}, "value": {"tensor": {"dtype": "DT_INT32", "tensorShape": {}}}}}, {"name": "StatefulPartitionedCall/decoder/lstm_31/zeros_1/Const", "op": "Const", "attr": {"value": {"tensor": {"dtype": "DT_FLOAT", "tensorShape": {}}}, "dtype": {"type": "DT_FLOAT"}}}, {"name": "StatefulPartitionedCall/decoder/lstm_31/strided_slice_1/stack", "op": "Const", "attr": {"dtype": {"type": "DT_INT32"}, "value": {"tensor": {"dtype": "DT_INT32", "tensorShape": {"dim": [{"size": "1"}]}}}}}, {"name": "StatefulPartitionedCall/decoder/lstm_31/strided_slice_1/stack_1", "op": "Const", "attr": {"dtype": {"type": "DT_INT32"}, "value": {"tensor": {"dtype": "DT_INT32", "tensorShape": {"dim": [{"size": "1"}]}}}}}, {"name": "StatefulPartitionedCall/decoder/lstm_31/strided_slice_1/stack_2", "op": "Const", "attr": {"dtype": {"type": "DT_INT32"}, "value": {"tensor": {"dtype": "DT_INT32", "tensorShape": {"dim": [{"size": "1"}]}}}}}, {"name": "StatefulPartitionedCall/decoder/lstm_30/PartitionedCall/while/loop_counter", "op": "Const", "attr": {"dtype": {"type": "DT_INT32"}, "value": {"tensor": {"dtype": "DT_INT32", "tensorShape": {}}}}}, {"name": "StatefulPartitionedCall/decoder/lstm_30/PartitionedCall/while/maximum_iterations", "op": "Const", "attr": {"dtype": {"type": "DT_INT32"}, "value": {"tensor": {"dtype": "DT_INT32", "tensorShape": {}}}}}, {"name": "StatefulPartitionedCall/decoder/lstm_30/PartitionedCall/time", "op": "Const", "attr": {"value": {"tensor": {"dtype": "DT_INT32", "tensorShape": {}}}, "dtype": {"type": "DT_INT32"}}}, {"name": "StatefulPartitionedCall/decoder/lstm_30/PartitionedCall/TensorArrayV2_1/element_shape", "op": "Const", "attr": {"value": {"tensor": {"dtype": "DT_INT32", "tensorShape": {"dim": [{"size": "2"}]}}}, "dtype": {"type": "DT_INT32"}}}, {"name": "StatefulPartitionedCall/decoder/lstm_30/zeros/packed/1", "op": "Const", "attr": {"dtype": {"type": "DT_INT32"}, "value": {"tensor": {"dtype": "DT_INT32", "tensorShape": {}}}}}, {"name": "StatefulPartitionedCall/decoder/lstm_30/zeros/Const", "op": "Const", "attr": {"value": {"tensor": {"dtype": "DT_FLOAT", "tensorShape": {}}}, "dtype": {"type": "DT_FLOAT"}}}, {"name": "StatefulPartitionedCall/decoder/lstm_30/strided_slice/stack", "op": "Const", "attr": {"value": {"tensor": {"dtype": "DT_INT32", "tensorShape": {"dim": [{"size": "1"}]}}}, "dtype": {"type": "DT_INT32"}}}, {"name": "StatefulPartitionedCall/decoder/lstm_30/strided_slice/stack_1", "op": "Const", "attr": {"dtype": {"type": "DT_INT32"}, "value": {"tensor": {"dtype": "DT_INT32", "tensorShape": {"dim": [{"size": "1"}]}}}}}, {"name": "StatefulPartitionedCall/decoder/lstm_30/strided_slice/stack_2", "op": "Const", "attr": {"dtype": {"type": "DT_INT32"}, "value": {"tensor": {"dtype": "DT_INT32", "tensorShape": {"dim": [{"size": "1"}]}}}}}, {"name": "StatefulPartitionedCall/decoder/lstm_30/zeros_1/packed/1", "op": "Const", "attr": {"value": {"tensor": {"dtype": "DT_INT32", "tensorShape": {}}}, "dtype": {"type": "DT_INT32"}}}, {"name": "StatefulPartitionedCall/decoder/lstm_30/zeros_1/Const", "op": "Const", "attr": {"dtype": {"type": "DT_FLOAT"}, "value": {"tensor": {"dtype": "DT_FLOAT", "tensorShape": {}}}}}, {"name": "StatefulPartitionedCall/decoder/lstm_30/PartitionedCall/strided_slice/stack", "op": "Const", "attr": {"dtype": {"type": "DT_INT32"}, "value": {"tensor": {"dtype": "DT_INT32", "tensorShape": {"dim": [{"size": "1"}]}}}}}, {"name": "StatefulPartitionedCall/decoder/lstm_30/PartitionedCall/strided_slice/stack_1", "op": "Const", "attr": {"dtype": {"type": "DT_INT32"}, "value": {"tensor": {"dtype": "DT_INT32", "tensorShape": {"dim": [{"size": "1"}]}}}}}, {"name": "StatefulPartitionedCall/decoder/lstm_30/PartitionedCall/strided_slice/stack_2", "op": "Const", "attr": {"dtype": {"type": "DT_INT32"}, "value": {"tensor": {"dtype": "DT_INT32", "tensorShape": {"dim": [{"size": "1"}]}}}}}, {"name": "StatefulPartitionedCall/decoder/lstm_30/PartitionedCall/transpose/perm", "op": "Const", "attr": {"value": {"tensor": {"dtype": "DT_INT32", "tensorShape": {"dim": [{"size": "3"}]}}}, "dtype": {"type": "DT_INT32"}}}, {"name": "StatefulPartitionedCall/decoder/lstm_30/PartitionedCall/TensorArrayUnstack/TensorListFromTensor/element_shape", "op": "Const", "attr": {"dtype": {"type": "DT_INT32"}, "value": {"tensor": {"dtype": "DT_INT32", "tensorShape": {"dim": [{"size": "2"}]}}}}}, {"name": "StatefulPartitionedCall/decoder/lstm_30/Read/ReadVariableOp", "op": "Const", "attr": {"value": {"tensor": {"dtype": "DT_FLOAT", "tensorShape": {"dim": [{"size": "512"}, {"size": "2048"}]}}}, "dtype": {"type": "DT_FLOAT"}}}, {"name": "StatefulPartitionedCall/decoder/lstm_30/Read_1/ReadVariableOp", "op": "Const", "attr": {"value": {"tensor": {"dtype": "DT_FLOAT", "tensorShape": {"dim": [{"size": "512"}, {"size": "2048"}]}}}, "dtype": {"type": "DT_FLOAT"}}}, {"name": "StatefulPartitionedCall/decoder/lstm_30/Read_2/ReadVariableOp", "op": "Const", "attr": {"dtype": {"type": "DT_FLOAT"}, "value": {"tensor": {"dtype": "DT_FLOAT", "tensorShape": {"dim": [{"size": "2048"}]}}}}}, {"name": "StatefulPartitionedCall/decoder/lstm_30/PartitionedCall/TensorArrayV2Stack/TensorListStack/element_shape", "op": "Const", "attr": {"value": {"tensor": {"dtype": "DT_INT32", "tensorShape": {"dim": [{"size": "2"}]}}}, "dtype": {"type": "DT_INT32"}}}, {"name": "StatefulPartitionedCall/decoder/lstm_31/TensorArrayUnstack/TensorListFromTensor/element_shape", "op": "Const", "attr": {"dtype": {"type": "DT_INT32"}, "value": {"tensor": {"dtype": "DT_INT32", "tensorShape": {"dim": [{"size": "2"}]}}}}}, {"name": "unknown_16", "op": "Const", "attr": {"dtype": {"type": "DT_FLOAT"}, "value": {"tensor": {"dtype": "DT_FLOAT", "tensorShape": {"dim": [{"size": "512"}, {"size": "36"}]}}}}}, {"name": "unknown_17", "op": "Const", "attr": {"value": {"tensor": {"dtype": "DT_FLOAT", "tensorShape": {"dim": [{"size": "9"}, {"size": "36"}]}}}, "dtype": {"type": "DT_FLOAT"}}}, {"name": "unknown_18", "op": "Const", "attr": {"value": {"tensor": {"dtype": "DT_FLOAT", "tensorShape": {"dim": [{"size": "36"}]}}}, "dtype": {"type": "DT_FLOAT"}}}, {"name": "StatefulPartitionedCall/decoder/lstm_33/while/loop_counter", "op": "Const", "attr": {"dtype": {"type": "DT_INT32"}, "value": {"tensor": {"dtype": "DT_INT32", "tensorShape": {}}}}}, {"name": "StatefulPartitionedCall/decoder/lstm_33/while/maximum_iterations", "op": "Const", "attr": {"dtype": {"type": "DT_INT32"}, "value": {"tensor": {"dtype": "DT_INT32", "tensorShape": {}}}}}, {"name": "StatefulPartitionedCall/decoder/lstm_33/time", "op": "Const", "attr": {"dtype": {"type": "DT_INT32"}, "value": {"tensor": {"dtype": "DT_INT32", "tensorShape": {}}}}}, {"name": "StatefulPartitionedCall/decoder/lstm_33/TensorArrayV2_1/element_shape", "op": "Const", "attr": {"dtype": {"type": "DT_INT32"}, "value": {"tensor": {"dtype": "DT_INT32", "tensorShape": {"dim": [{"size": "2"}]}}}}}, {"name": "StatefulPartitionedCall/decoder/lstm_33/zeros/packed/1", "op": "Const", "attr": {"dtype": {"type": "DT_INT32"}, "value": {"tensor": {"dtype": "DT_INT32", "tensorShape": {}}}}}, {"name": "StatefulPartitionedCall/decoder/lstm_33/zeros/Const", "op": "Const", "attr": {"value": {"tensor": {"dtype": "DT_FLOAT", "tensorShape": {}}}, "dtype": {"type": "DT_FLOAT"}}}, {"name": "StatefulPartitionedCall/decoder/lstm_32/PartitionedCall/transpose_1/perm", "op": "Const", "attr": {"dtype": {"type": "DT_INT32"}, "value": {"tensor": {"dtype": "DT_INT32", "tensorShape": {"dim": [{"size": "3"}]}}}}}, {"name": "StatefulPartitionedCall/decoder/lstm_33/strided_slice/stack", "op": "Const", "attr": {"dtype": {"type": "DT_INT32"}, "value": {"tensor": {"dtype": "DT_INT32", "tensorShape": {"dim": [{"size": "1"}]}}}}}, {"name": "StatefulPartitionedCall/decoder/lstm_33/strided_slice/stack_1", "op": "Const", "attr": {"dtype": {"type": "DT_INT32"}, "value": {"tensor": {"dtype": "DT_INT32", "tensorShape": {"dim": [{"size": "1"}]}}}}}, {"name": "StatefulPartitionedCall/decoder/lstm_33/strided_slice/stack_2", "op": "Const", "attr": {"value": {"tensor": {"dtype": "DT_INT32", "tensorShape": {"dim": [{"size": "1"}]}}}, "dtype": {"type": "DT_INT32"}}}, {"name": "StatefulPartitionedCall/decoder/lstm_33/zeros_1/packed/1", "op": "Const", "attr": {"dtype": {"type": "DT_INT32"}, "value": {"tensor": {"dtype": "DT_INT32", "tensorShape": {}}}}}, {"name": "StatefulPartitionedCall/decoder/lstm_33/zeros_1/Const", "op": "Const", "attr": {"dtype": {"type": "DT_FLOAT"}, "value": {"tensor": {"dtype": "DT_FLOAT", "tensorShape": {}}}}}, {"name": "StatefulPartitionedCall/decoder/lstm_33/strided_slice_1/stack", "op": "Const", "attr": {"dtype": {"type": "DT_INT32"}, "value": {"tensor": {"dtype": "DT_INT32", "tensorShape": {"dim": [{"size": "1"}]}}}}}, {"name": "StatefulPartitionedCall/decoder/lstm_33/strided_slice_1/stack_1", "op": "Const", "attr": {"value": {"tensor": {"dtype": "DT_INT32", "tensorShape": {"dim": [{"size": "1"}]}}}, "dtype": {"type": "DT_INT32"}}}, {"name": "StatefulPartitionedCall/decoder/lstm_33/strided_slice_1/stack_2", "op": "Const", "attr": {"dtype": {"type": "DT_INT32"}, "value": {"tensor": {"dtype": "DT_INT32", "tensorShape": {"dim": [{"size": "1"}]}}}}}, {"name": "StatefulPartitionedCall/decoder/lstm_32/PartitionedCall/while/loop_counter", "op": "Const", "attr": {"value": {"tensor": {"dtype": "DT_INT32", "tensorShape": {}}}, "dtype": {"type": "DT_INT32"}}}, {"name": "StatefulPartitionedCall/decoder/lstm_32/PartitionedCall/while/maximum_iterations", "op": "Const", "attr": {"value": {"tensor": {"dtype": "DT_INT32", "tensorShape": {}}}, "dtype": {"type": "DT_INT32"}}}, {"name": "StatefulPartitionedCall/decoder/lstm_32/PartitionedCall/time", "op": "Const", "attr": {"value": {"tensor": {"dtype": "DT_INT32", "tensorShape": {}}}, "dtype": {"type": "DT_INT32"}}}, {"name": "StatefulPartitionedCall/decoder/lstm_32/PartitionedCall/TensorArrayV2_1/element_shape", "op": "Const", "attr": {"value": {"tensor": {"dtype": "DT_INT32", "tensorShape": {"dim": [{"size": "2"}]}}}, "dtype": {"type": "DT_INT32"}}}, {"name": "StatefulPartitionedCall/decoder/lstm_32/zeros/packed/1", "op": "Const", "attr": {"dtype": {"type": "DT_INT32"}, "value": {"tensor": {"dtype": "DT_INT32", "tensorShape": {}}}}}, {"name": "StatefulPartitionedCall/decoder/lstm_32/zeros/Const", "op": "Const", "attr": {"dtype": {"type": "DT_FLOAT"}, "value": {"tensor": {"dtype": "DT_FLOAT", "tensorShape": {}}}}}, {"name": "StatefulPartitionedCall/decoder/lstm_32/strided_slice/stack", "op": "Const", "attr": {"dtype": {"type": "DT_INT32"}, "value": {"tensor": {"dtype": "DT_INT32", "tensorShape": {"dim": [{"size": "1"}]}}}}}, {"name": "StatefulPartitionedCall/decoder/lstm_32/strided_slice/stack_1", "op": "Const", "attr": {"dtype": {"type": "DT_INT32"}, "value": {"tensor": {"dtype": "DT_INT32", "tensorShape": {"dim": [{"size": "1"}]}}}}}, {"name": "StatefulPartitionedCall/decoder/lstm_32/strided_slice/stack_2", "op": "Const", "attr": {"value": {"tensor": {"dtype": "DT_INT32", "tensorShape": {"dim": [{"size": "1"}]}}}, "dtype": {"type": "DT_INT32"}}}, {"name": "StatefulPartitionedCall/decoder/lstm_32/zeros_1/packed/1", "op": "Const", "attr": {"dtype": {"type": "DT_INT32"}, "value": {"tensor": {"dtype": "DT_INT32", "tensorShape": {}}}}}, {"name": "StatefulPartitionedCall/decoder/lstm_32/zeros_1/Const", "op": "Const", "attr": {"dtype": {"type": "DT_FLOAT"}, "value": {"tensor": {"dtype": "DT_FLOAT", "tensorShape": {}}}}}, {"name": "StatefulPartitionedCall/decoder/lstm_32/PartitionedCall/strided_slice/stack", "op": "Const", "attr": {"value": {"tensor": {"dtype": "DT_INT32", "tensorShape": {"dim": [{"size": "1"}]}}}, "dtype": {"type": "DT_INT32"}}}, {"name": "StatefulPartitionedCall/decoder/lstm_32/PartitionedCall/strided_slice/stack_1", "op": "Const", "attr": {"dtype": {"type": "DT_INT32"}, "value": {"tensor": {"dtype": "DT_INT32", "tensorShape": {"dim": [{"size": "1"}]}}}}}, {"name": "StatefulPartitionedCall/decoder/lstm_32/PartitionedCall/strided_slice/stack_2", "op": "Const", "attr": {"dtype": {"type": "DT_INT32"}, "value": {"tensor": {"dtype": "DT_INT32", "tensorShape": {"dim": [{"size": "1"}]}}}}}, {"name": "StatefulPartitionedCall/decoder/dense_11/MatMul/ReadVariableOp", "op": "Const", "attr": {"value": {"tensor": {"dtype": "DT_FLOAT", "tensorShape": {"dim": [{"size": "512"}, {"size": "512"}]}}}, "dtype": {"type": "DT_FLOAT"}}}, {"name": "StatefulPartitionedCall/decoder/dense_11/BiasAdd/ReadVariableOp", "op": "Const", "attr": {"value": {"tensor": {"dtype": "DT_FLOAT", "tensorShape": {"dim": [{"size": "512"}]}}}, "dtype": {"type": "DT_FLOAT"}}}, {"name": "StatefulPartitionedCall/decoder/repeat_vector_2/ExpandDims/dim", "op": "Const", "attr": {"value": {"tensor": {"dtype": "DT_INT32", "tensorShape": {}}}, "dtype": {"type": "DT_INT32"}}}, {"name": "StatefulPartitionedCall/decoder/repeat_vector_2/stack", "op": "Const", "attr": {"value": {"tensor": {"dtype": "DT_INT32", "tensorShape": {"dim": [{"size": "3"}]}}}, "dtype": {"type": "DT_INT32"}}}, {"name": "StatefulPartitionedCall/decoder/lstm_32/PartitionedCall/transpose/perm", "op": "Const", "attr": {"dtype": {"type": "DT_INT32"}, "value": {"tensor": {"dtype": "DT_INT32", "tensorShape": {"dim": [{"size": "3"}]}}}}}, {"name": "StatefulPartitionedCall/decoder/lstm_32/PartitionedCall/TensorArrayUnstack/TensorListFromTensor/element_shape", "op": "Const", "attr": {"value": {"tensor": {"dtype": "DT_INT32", "tensorShape": {"dim": [{"size": "2"}]}}}, "dtype": {"type": "DT_INT32"}}}, {"name": "StatefulPartitionedCall/decoder/lstm_32/Read/ReadVariableOp", "op": "Const", "attr": {"value": {"tensor": {"dtype": "DT_FLOAT", "tensorShape": {"dim": [{"size": "512"}, {"size": "2048"}]}}}, "dtype": {"type": "DT_FLOAT"}}}, {"name": "StatefulPartitionedCall/decoder/lstm_32/Read_1/ReadVariableOp", "op": "Const", "attr": {"dtype": {"type": "DT_FLOAT"}, "value": {"tensor": {"dtype": "DT_FLOAT", "tensorShape": {"dim": [{"size": "512"}, {"size": "2048"}]}}}}}, {"name": "StatefulPartitionedCall/decoder/lstm_32/Read_2/ReadVariableOp", "op": "Const", "attr": {"dtype": {"type": "DT_FLOAT"}, "value": {"tensor": {"dtype": "DT_FLOAT", "tensorShape": {"dim": [{"size": "2048"}]}}}}}, {"name": "StatefulPartitionedCall/decoder/lstm_32/PartitionedCall/TensorArrayV2Stack/TensorListStack/element_shape", "op": "Const", "attr": {"value": {"tensor": {"dtype": "DT_INT32", "tensorShape": {"dim": [{"size": "2"}]}}}, "dtype": {"type": "DT_INT32"}}}, {"name": "StatefulPartitionedCall/decoder/lstm_33/TensorArrayUnstack/TensorListFromTensor/element_shape", "op": "Const", "attr": {"value": {"tensor": {"dtype": "DT_INT32", "tensorShape": {"dim": [{"size": "2"}]}}}, "dtype": {"type": "DT_INT32"}}}, {"name": "unknown_13", "op": "Const", "attr": {"dtype": {"type": "DT_FLOAT"}, "value": {"tensor": {"dtype": "DT_FLOAT", "tensorShape": {"dim": [{"size": "512"}, {"size": "36"}]}}}}}, {"name": "unknown_14", "op": "Const", "attr": {"value": {"tensor": {"dtype": "DT_FLOAT", "tensorShape": {"dim": [{"size": "9"}, {"size": "36"}]}}}, "dtype": {"type": "DT_FLOAT"}}}, {"name": "unknown_15", "op": "Const", "attr": {"value": {"tensor": {"dtype": "DT_FLOAT", "tensorShape": {"dim": [{"size": "36"}]}}}, "dtype": {"type": "DT_FLOAT"}}}, {"name": "z_sampling", "op": "Placeholder", "attr": {"dtype": {"type": "DT_FLOAT"}, "shape": {"shape": {"dim": [{"size": "-1"}, {"size": "512"}]}}}}, {"name": "StatefulPartitionedCall/decoder/dense_11/Relu", "op": "_FusedMatMul", "input": ["z_sampling", "StatefulPartitionedCall/decoder/dense_11/MatMul/ReadVariableOp", "StatefulPartitionedCall/decoder/dense_11/BiasAdd/ReadVariableOp"], "device": "/device:CPU:0", "attr": {"T": {"type": "DT_FLOAT"}, "transpose_a": {"b": false}, "num_args": {"i": "1"}, "epsilon": {"f": 0.0}, "fused_ops": {"list": {"s": ["Qmlhc0FkZA==", "UmVsdQ=="]}}, "transpose_b": {"b": false}}}, {"name": "StatefulPartitionedCall/decoder/repeat_vector_2/ExpandDims", "op": "ExpandDims", "input": ["StatefulPartitionedCall/decoder/dense_11/Relu", "StatefulPartitionedCall/decoder/repeat_vector_2/ExpandDims/dim"], "attr": {"T": {"type": "DT_FLOAT"}, "Tdim": {"type": "DT_INT32"}}}, {"name": "StatefulPartitionedCall/decoder/repeat_vector_2/Tile", "op": "Tile", "input": ["StatefulPartitionedCall/decoder/repeat_vector_2/ExpandDims", "StatefulPartitionedCall/decoder/repeat_vector_2/stack"], "attr": {"T": {"type": "DT_FLOAT"}, "Tmultiples": {"type": "DT_INT32"}}}, {"name": "StatefulPartitionedCall/decoder/lstm_34/Shape", "op": "Shape", "input": ["StatefulPartitionedCall/decoder/repeat_vector_2/Tile"], "attr": {"T": {"type": "DT_FLOAT"}, "out_type": {"type": "DT_INT32"}}}, {"name": "StatefulPartitionedCall/decoder/lstm_34/PartitionedCall/transpose", "op": "Transpose", "input": ["StatefulPartitionedCall/decoder/repeat_vector_2/Tile", "StatefulPartitionedCall/decoder/lstm_34/PartitionedCall/transpose/perm"], "attr": {"Tperm": {"type": "DT_INT32"}, "T": {"type": "DT_FLOAT"}}}, {"name": "StatefulPartitionedCall/decoder/lstm_30/Shape", "op": "Shape", "input": ["StatefulPartitionedCall/decoder/repeat_vector_2/Tile"], "attr": {"T": {"type": "DT_FLOAT"}, "out_type": {"type": "DT_INT32"}}}, {"name": "StatefulPartitionedCall/decoder/lstm_30/PartitionedCall/transpose", "op": "Transpose", "input": ["StatefulPartitionedCall/decoder/repeat_vector_2/Tile", "StatefulPartitionedCall/decoder/lstm_30/PartitionedCall/transpose/perm"], "attr": {"T": {"type": "DT_FLOAT"}, "Tperm": {"type": "DT_INT32"}}}, {"name": "StatefulPartitionedCall/decoder/lstm_32/Shape", "op": "Shape", "input": ["StatefulPartitionedCall/decoder/repeat_vector_2/Tile"], "attr": {"out_type": {"type": "DT_INT32"}, "T": {"type": "DT_FLOAT"}}}, {"name": "StatefulPartitionedCall/decoder/lstm_32/PartitionedCall/transpose", "op": "Transpose", "input": ["StatefulPartitionedCall/decoder/repeat_vector_2/Tile", "StatefulPartitionedCall/decoder/lstm_32/PartitionedCall/transpose/perm"], "attr": {"Tperm": {"type": "DT_INT32"}, "T": {"type": "DT_FLOAT"}}}, {"name": "StatefulPartitionedCall/decoder/lstm_34/strided_slice", "op": "StridedSlice", "input": ["StatefulPartitionedCall/decoder/lstm_34/Shape", "StatefulPartitionedCall/decoder/lstm_34/strided_slice/stack", "StatefulPartitionedCall/decoder/lstm_34/strided_slice/stack_1", "StatefulPartitionedCall/decoder/lstm_34/strided_slice/stack_2"], "attr": {"T": {"type": "DT_INT32"}, "shrink_axis_mask": {"i": "1"}, "end_mask": {"i": "0"}, "ellipsis_mask": {"i": "0"}, "Index": {"type": "DT_INT32"}, "new_axis_mask": {"i": "0"}, "begin_mask": {"i": "0"}}}, {"name": "StatefulPartitionedCall/decoder/lstm_34/PartitionedCall/Shape", "op": "Shape", "input": ["StatefulPartitionedCall/decoder/lstm_34/PartitionedCall/transpose"], "attr": {"T": {"type": "DT_FLOAT"}, "out_type": {"type": "DT_INT32"}}}, {"name": "StatefulPartitionedCall/decoder/lstm_34/PartitionedCall/TensorArrayUnstack/TensorListFromTensor", "op": "TensorListFromTensor", "input": ["StatefulPartitionedCall/decoder/lstm_34/PartitionedCall/transpose", "StatefulPartitionedCall/decoder/lstm_34/PartitionedCall/TensorArrayUnstack/TensorListFromTensor/element_shape"], "attr": {"shape_type": {"type": "DT_INT32"}, "element_dtype": {"type": "DT_FLOAT"}}}, {"name": "StatefulPartitionedCall/decoder/lstm_30/strided_slice", "op": "StridedSlice", "input": ["StatefulPartitionedCall/decoder/lstm_30/Shape", "StatefulPartitionedCall/decoder/lstm_30/strided_slice/stack", "StatefulPartitionedCall/decoder/lstm_30/strided_slice/stack_1", "StatefulPartitionedCall/decoder/lstm_30/strided_slice/stack_2"], "attr": {"new_axis_mask": {"i": "0"}, "Index": {"type": "DT_INT32"}, "shrink_axis_mask": {"i": "1"}, "T": {"type": "DT_INT32"}, "ellipsis_mask": {"i": "0"}, "begin_mask": {"i": "0"}, "end_mask": {"i": "0"}}}, {"name": "StatefulPartitionedCall/decoder/lstm_30/PartitionedCall/Shape", "op": "Shape", "input": ["StatefulPartitionedCall/decoder/lstm_30/PartitionedCall/transpose"], "attr": {"T": {"type": "DT_FLOAT"}, "out_type": {"type": "DT_INT32"}}}, {"name": "StatefulPartitionedCall/decoder/lstm_30/PartitionedCall/TensorArrayUnstack/TensorListFromTensor", "op": "TensorListFromTensor", "input": ["StatefulPartitionedCall/decoder/lstm_30/PartitionedCall/transpose", "StatefulPartitionedCall/decoder/lstm_30/PartitionedCall/TensorArrayUnstack/TensorListFromTensor/element_shape"], "attr": {"shape_type": {"type": "DT_INT32"}, "element_dtype": {"type": "DT_FLOAT"}}}, {"name": "StatefulPartitionedCall/decoder/lstm_32/strided_slice", "op": "StridedSlice", "input": ["StatefulPartitionedCall/decoder/lstm_32/Shape", "StatefulPartitionedCall/decoder/lstm_32/strided_slice/stack", "StatefulPartitionedCall/decoder/lstm_32/strided_slice/stack_1", "StatefulPartitionedCall/decoder/lstm_32/strided_slice/stack_2"], "attr": {"shrink_axis_mask": {"i": "1"}, "ellipsis_mask": {"i": "0"}, "T": {"type": "DT_INT32"}, "end_mask": {"i": "0"}, "begin_mask": {"i": "0"}, "new_axis_mask": {"i": "0"}, "Index": {"type": "DT_INT32"}}}, {"name": "StatefulPartitionedCall/decoder/lstm_32/PartitionedCall/Shape", "op": "Shape", "input": ["StatefulPartitionedCall/decoder/lstm_32/PartitionedCall/transpose"], "attr": {"out_type": {"type": "DT_INT32"}, "T": {"type": "DT_FLOAT"}}}, {"name": "StatefulPartitionedCall/decoder/lstm_32/PartitionedCall/TensorArrayUnstack/TensorListFromTensor", "op": "TensorListFromTensor", "input": ["StatefulPartitionedCall/decoder/lstm_32/PartitionedCall/transpose", "StatefulPartitionedCall/decoder/lstm_32/PartitionedCall/TensorArrayUnstack/TensorListFromTensor/element_shape"], "attr": {"element_dtype": {"type": "DT_FLOAT"}, "shape_type": {"type": "DT_INT32"}}}, {"name": "StatefulPartitionedCall/decoder/lstm_34/zeros/packed", "op": "Pack", "input": ["StatefulPartitionedCall/decoder/lstm_34/strided_slice", "StatefulPartitionedCall/decoder/lstm_34/zeros/packed/1"], "attr": {"N": {"i": "2"}, "T": {"type": "DT_INT32"}, "axis": {"i": "0"}}}, {"name": "StatefulPartitionedCall/decoder/lstm_34/zeros_1/packed", "op": "Pack", "input": ["StatefulPartitionedCall/decoder/lstm_34/strided_slice", "StatefulPartitionedCall/decoder/lstm_34/zeros_1/packed/1"], "attr": {"T": {"type": "DT_INT32"}, "axis": {"i": "0"}, "N": {"i": "2"}}}, {"name": "StatefulPartitionedCall/decoder/lstm_34/PartitionedCall/strided_slice", "op": "StridedSlice", "input": ["StatefulPartitionedCall/decoder/lstm_34/PartitionedCall/Shape", "StatefulPartitionedCall/decoder/lstm_34/PartitionedCall/strided_slice/stack", "StatefulPartitionedCall/decoder/lstm_34/PartitionedCall/strided_slice/stack_1", "StatefulPartitionedCall/decoder/lstm_34/PartitionedCall/strided_slice/stack_2"], "attr": {"begin_mask": {"i": "0"}, "new_axis_mask": {"i": "0"}, "Index": {"type": "DT_INT32"}, "ellipsis_mask": {"i": "0"}, "T": {"type": "DT_INT32"}, "end_mask": {"i": "0"}, "shrink_axis_mask": {"i": "1"}}}, {"name": "StatefulPartitionedCall/decoder/lstm_30/zeros/packed", "op": "Pack", "input": ["StatefulPartitionedCall/decoder/lstm_30/strided_slice", "StatefulPartitionedCall/decoder/lstm_30/zeros/packed/1"], "attr": {"T": {"type": "DT_INT32"}, "N": {"i": "2"}, "axis": {"i": "0"}}}, {"name": "StatefulPartitionedCall/decoder/lstm_30/zeros_1/packed", "op": "Pack", "input": ["StatefulPartitionedCall/decoder/lstm_30/strided_slice", "StatefulPartitionedCall/decoder/lstm_30/zeros_1/packed/1"], "attr": {"N": {"i": "2"}, "T": {"type": "DT_INT32"}, "axis": {"i": "0"}}}, {"name": "StatefulPartitionedCall/decoder/lstm_30/PartitionedCall/strided_slice", "op": "StridedSlice", "input": ["StatefulPartitionedCall/decoder/lstm_30/PartitionedCall/Shape", "StatefulPartitionedCall/decoder/lstm_30/PartitionedCall/strided_slice/stack", "StatefulPartitionedCall/decoder/lstm_30/PartitionedCall/strided_slice/stack_1", "StatefulPartitionedCall/decoder/lstm_30/PartitionedCall/strided_slice/stack_2"], "attr": {"Index": {"type": "DT_INT32"}, "shrink_axis_mask": {"i": "1"}, "ellipsis_mask": {"i": "0"}, "new_axis_mask": {"i": "0"}, "begin_mask": {"i": "0"}, "end_mask": {"i": "0"}, "T": {"type": "DT_INT32"}}}, {"name": "StatefulPartitionedCall/decoder/lstm_32/zeros/packed", "op": "Pack", "input": ["StatefulPartitionedCall/decoder/lstm_32/strided_slice", "StatefulPartitionedCall/decoder/lstm_32/zeros/packed/1"], "attr": {"T": {"type": "DT_INT32"}, "axis": {"i": "0"}, "N": {"i": "2"}}}, {"name": "StatefulPartitionedCall/decoder/lstm_32/zeros_1/packed", "op": "Pack", "input": ["StatefulPartitionedCall/decoder/lstm_32/strided_slice", "StatefulPartitionedCall/decoder/lstm_32/zeros_1/packed/1"], "attr": {"T": {"type": "DT_INT32"}, "N": {"i": "2"}, "axis": {"i": "0"}}}, {"name": "StatefulPartitionedCall/decoder/lstm_32/PartitionedCall/strided_slice", "op": "StridedSlice", "input": ["StatefulPartitionedCall/decoder/lstm_32/PartitionedCall/Shape", "StatefulPartitionedCall/decoder/lstm_32/PartitionedCall/strided_slice/stack", "StatefulPartitionedCall/decoder/lstm_32/PartitionedCall/strided_slice/stack_1", "StatefulPartitionedCall/decoder/lstm_32/PartitionedCall/strided_slice/stack_2"], "attr": {"T": {"type": "DT_INT32"}, "ellipsis_mask": {"i": "0"}, "end_mask": {"i": "0"}, "shrink_axis_mask": {"i": "1"}, "begin_mask": {"i": "0"}, "Index": {"type": "DT_INT32"}, "new_axis_mask": {"i": "0"}}}, {"name": "StatefulPartitionedCall/decoder/lstm_34/zeros", "op": "Fill", "input": ["StatefulPartitionedCall/decoder/lstm_34/zeros/packed", "StatefulPartitionedCall/decoder/lstm_34/zeros/Const"], "attr": {"index_type": {"type": "DT_INT32"}, "T": {"type": "DT_FLOAT"}}}, {"name": "StatefulPartitionedCall/decoder/lstm_34/zeros_1", "op": "Fill", "input": ["StatefulPartitionedCall/decoder/lstm_34/zeros_1/packed", "StatefulPartitionedCall/decoder/lstm_34/zeros_1/Const"], "attr": {"T": {"type": "DT_FLOAT"}, "index_type": {"type": "DT_INT32"}}}, {"name": "StatefulPartitionedCall/decoder/lstm_34/PartitionedCall/TensorArrayV2_1", "op": "TensorListReserve", "input": ["StatefulPartitionedCall/decoder/lstm_34/PartitionedCall/TensorArrayV2_1/element_shape", "StatefulPartitionedCall/decoder/lstm_34/PartitionedCall/strided_slice"], "attr": {"element_dtype": {"type": "DT_FLOAT"}, "shape_type": {"type": "DT_INT32"}}}, {"name": "StatefulPartitionedCall/decoder/lstm_30/zeros", "op": "Fill", "input": ["StatefulPartitionedCall/decoder/lstm_30/zeros/packed", "StatefulPartitionedCall/decoder/lstm_30/zeros/Const"], "attr": {"index_type": {"type": "DT_INT32"}, "T": {"type": "DT_FLOAT"}}}, {"name": "StatefulPartitionedCall/decoder/lstm_30/zeros_1", "op": "Fill", "input": ["StatefulPartitionedCall/decoder/lstm_30/zeros_1/packed", "StatefulPartitionedCall/decoder/lstm_30/zeros_1/Const"], "attr": {"T": {"type": "DT_FLOAT"}, "index_type": {"type": "DT_INT32"}}}, {"name": "StatefulPartitionedCall/decoder/lstm_30/PartitionedCall/TensorArrayV2_1", "op": "TensorListReserve", "input": ["StatefulPartitionedCall/decoder/lstm_30/PartitionedCall/TensorArrayV2_1/element_shape", "StatefulPartitionedCall/decoder/lstm_30/PartitionedCall/strided_slice"], "attr": {"element_dtype": {"type": "DT_FLOAT"}, "shape_type": {"type": "DT_INT32"}}}, {"name": "StatefulPartitionedCall/decoder/lstm_32/zeros", "op": "Fill", "input": ["StatefulPartitionedCall/decoder/lstm_32/zeros/packed", "StatefulPartitionedCall/decoder/lstm_32/zeros/Const"], "attr": {"index_type": {"type": "DT_INT32"}, "T": {"type": "DT_FLOAT"}}}, {"name": "StatefulPartitionedCall/decoder/lstm_32/zeros_1", "op": "Fill", "input": ["StatefulPartitionedCall/decoder/lstm_32/zeros_1/packed", "StatefulPartitionedCall/decoder/lstm_32/zeros_1/Const"], "attr": {"T": {"type": "DT_FLOAT"}, "index_type": {"type": "DT_INT32"}}}, {"name": "StatefulPartitionedCall/decoder/lstm_32/PartitionedCall/TensorArrayV2_1", "op": "TensorListReserve", "input": ["StatefulPartitionedCall/decoder/lstm_32/PartitionedCall/TensorArrayV2_1/element_shape", "StatefulPartitionedCall/decoder/lstm_32/PartitionedCall/strided_slice"], "attr": {"shape_type": {"type": "DT_INT32"}, "element_dtype": {"type": "DT_FLOAT"}}}, {"name": "StatefulPartitionedCall/decoder/lstm_34/PartitionedCall/while", "op": "StatelessWhile", "input": ["StatefulPartitionedCall/decoder/lstm_34/PartitionedCall/while/loop_counter", "StatefulPartitionedCall/decoder/lstm_34/PartitionedCall/while/maximum_iterations", "StatefulPartitionedCall/decoder/lstm_34/PartitionedCall/time", "StatefulPartitionedCall/decoder/lstm_34/PartitionedCall/TensorArrayV2_1", "StatefulPartitionedCall/decoder/lstm_34/zeros", "StatefulPartitionedCall/decoder/lstm_34/zeros_1", "StatefulPartitionedCall/decoder/lstm_34/PartitionedCall/strided_slice", "StatefulPartitionedCall/decoder/lstm_34/PartitionedCall/TensorArrayUnstack/TensorListFromTensor", "StatefulPartitionedCall/decoder/lstm_34/Read/ReadVariableOp", "StatefulPartitionedCall/decoder/lstm_34/Read_1/ReadVariableOp", "StatefulPartitionedCall/decoder/lstm_34/Read_2/ReadVariableOp"], "attr": {"parallel_iterations": {"i": "32"}, "T": {"list": {"type": ["DT_INT32", "DT_INT32", "DT_INT32", "DT_VARIANT", "DT_FLOAT", "DT_FLOAT", "DT_INT32", "DT_VARIANT", "DT_FLOAT", "DT_FLOAT", "DT_FLOAT"]}}, "_read_only_resource_inputs": {"list": {}}, "_lower_using_switch_merge": {"b": false}, "body": {"func": {"name": "__inference_while_body_2420_32079"}}, "cond": {"func": {"name": "__inference_while_cond_2419_38400"}}, "_num_original_outputs": {"i": "11"}, "output_shapes": {"list": {"shape": [{}, {}, {}, {}, {"dim": [{"size": "-1"}, {"size": "512"}]}, {"dim": [{"size": "-1"}, {"size": "512"}]}, {}, {}, {"dim": [{"size": "512"}, {"size": "2048"}]}, {"dim": [{"size": "512"}, {"size": "2048"}]}, {"dim": [{"size": "2048"}]}]}}}}, {"name": "StatefulPartitionedCall/decoder/lstm_30/PartitionedCall/while", "op": "StatelessWhile", "input": ["StatefulPartitionedCall/decoder/lstm_30/PartitionedCall/while/loop_counter", "StatefulPartitionedCall/decoder/lstm_30/PartitionedCall/while/maximum_iterations", "StatefulPartitionedCall/decoder/lstm_30/PartitionedCall/time", "StatefulPartitionedCall/decoder/lstm_30/PartitionedCall/TensorArrayV2_1", "StatefulPartitionedCall/decoder/lstm_30/zeros", "StatefulPartitionedCall/decoder/lstm_30/zeros_1", "StatefulPartitionedCall/decoder/lstm_30/PartitionedCall/strided_slice", "StatefulPartitionedCall/decoder/lstm_30/PartitionedCall/TensorArrayUnstack/TensorListFromTensor", "StatefulPartitionedCall/decoder/lstm_30/Read/ReadVariableOp", "StatefulPartitionedCall/decoder/lstm_30/Read_1/ReadVariableOp", "StatefulPartitionedCall/decoder/lstm_30/Read_2/ReadVariableOp"], "attr": {"output_shapes": {"list": {"shape": [{}, {}, {}, {}, {"dim": [{"size": "-1"}, {"size": "512"}]}, {"dim": [{"size": "-1"}, {"size": "512"}]}, {}, {}, {"dim": [{"size": "512"}, {"size": "2048"}]}, {"dim": [{"size": "512"}, {"size": "2048"}]}, {"dim": [{"size": "2048"}]}]}}, "_num_original_outputs": {"i": "11"}, "parallel_iterations": {"i": "32"}, "_lower_using_switch_merge": {"b": false}, "cond": {"func": {"name": "__inference_while_cond_3285_42363"}}, "T": {"list": {"type": ["DT_INT32", "DT_INT32", "DT_INT32", "DT_VARIANT", "DT_FLOAT", "DT_FLOAT", "DT_INT32", "DT_VARIANT", "DT_FLOAT", "DT_FLOAT", "DT_FLOAT"]}}, "body": {"func": {"name": "__inference_while_body_3286_50228"}}, "_read_only_resource_inputs": {"list": {}}}}, {"name": "StatefulPartitionedCall/decoder/lstm_32/PartitionedCall/while", "op": "StatelessWhile", "input": ["StatefulPartitionedCall/decoder/lstm_32/PartitionedCall/while/loop_counter", "StatefulPartitionedCall/decoder/lstm_32/PartitionedCall/while/maximum_iterations", "StatefulPartitionedCall/decoder/lstm_32/PartitionedCall/time", "StatefulPartitionedCall/decoder/lstm_32/PartitionedCall/TensorArrayV2_1", "StatefulPartitionedCall/decoder/lstm_32/zeros", "StatefulPartitionedCall/decoder/lstm_32/zeros_1", "StatefulPartitionedCall/decoder/lstm_32/PartitionedCall/strided_slice", "StatefulPartitionedCall/decoder/lstm_32/PartitionedCall/TensorArrayUnstack/TensorListFromTensor", "StatefulPartitionedCall/decoder/lstm_32/Read/ReadVariableOp", "StatefulPartitionedCall/decoder/lstm_32/Read_1/ReadVariableOp", "StatefulPartitionedCall/decoder/lstm_32/Read_2/ReadVariableOp"], "attr": {"_num_original_outputs": {"i": "11"}, "_read_only_resource_inputs": {"list": {}}, "body": {"func": {"name": "__inference_while_body_2853_42537"}}, "T": {"list": {"type": ["DT_INT32", "DT_INT32", "DT_INT32", "DT_VARIANT", "DT_FLOAT", "DT_FLOAT", "DT_INT32", "DT_VARIANT", "DT_FLOAT", "DT_FLOAT", "DT_FLOAT"]}}, "output_shapes": {"list": {"shape": [{}, {}, {}, {}, {"dim": [{"size": "-1"}, {"size": "512"}]}, {"dim": [{"size": "-1"}, {"size": "512"}]}, {}, {}, {"dim": [{"size": "512"}, {"size": "2048"}]}, {"dim": [{"size": "512"}, {"size": "2048"}]}, {"dim": [{"size": "2048"}]}]}}, "_lower_using_switch_merge": {"b": false}, "cond": {"func": {"name": "__inference_while_cond_2852_44134"}}, "parallel_iterations": {"i": "32"}}}, {"name": "StatefulPartitionedCall/decoder/lstm_34/PartitionedCall/TensorArrayV2Stack/TensorListStack", "op": "TensorListStack", "input": ["StatefulPartitionedCall/decoder/lstm_34/PartitionedCall/while:3", "StatefulPartitionedCall/decoder/lstm_34/PartitionedCall/TensorArrayV2Stack/TensorListStack/element_shape"], "attr": {"element_dtype": {"type": "DT_FLOAT"}, "num_elements": {"i": "-1"}}}, {"name": "StatefulPartitionedCall/decoder/lstm_30/PartitionedCall/TensorArrayV2Stack/TensorListStack", "op": "TensorListStack", "input": ["StatefulPartitionedCall/decoder/lstm_30/PartitionedCall/while:3", "StatefulPartitionedCall/decoder/lstm_30/PartitionedCall/TensorArrayV2Stack/TensorListStack/element_shape"], "attr": {"element_dtype": {"type": "DT_FLOAT"}, "num_elements": {"i": "-1"}}}, {"name": "StatefulPartitionedCall/decoder/lstm_32/PartitionedCall/TensorArrayV2Stack/TensorListStack", "op": "TensorListStack", "input": ["StatefulPartitionedCall/decoder/lstm_32/PartitionedCall/while:3", "StatefulPartitionedCall/decoder/lstm_32/PartitionedCall/TensorArrayV2Stack/TensorListStack/element_shape"], "attr": {"num_elements": {"i": "-1"}, "element_dtype": {"type": "DT_FLOAT"}}}, {"name": "StatefulPartitionedCall/decoder/lstm_34/PartitionedCall/transpose_1", "op": "Transpose", "input": ["StatefulPartitionedCall/decoder/lstm_34/PartitionedCall/TensorArrayV2Stack/TensorListStack", "StatefulPartitionedCall/decoder/lstm_34/PartitionedCall/transpose_1/perm"], "attr": {"T": {"type": "DT_FLOAT"}, "Tperm": {"type": "DT_INT32"}}}, {"name": "StatefulPartitionedCall/decoder/lstm_35/PartitionedCall/Shape", "op": "Shape", "input": ["StatefulPartitionedCall/decoder/lstm_34/PartitionedCall/TensorArrayV2Stack/TensorListStack"], "attr": {"T": {"type": "DT_FLOAT"}, "out_type": {"type": "DT_INT32"}}}, {"name": "StatefulPartitionedCall/decoder/lstm_35/PartitionedCall/TensorArrayUnstack/TensorListFromTensor", "op": "TensorListFromTensor", "input": ["StatefulPartitionedCall/decoder/lstm_34/PartitionedCall/TensorArrayV2Stack/TensorListStack", "StatefulPartitionedCall/decoder/lstm_35/PartitionedCall/TensorArrayUnstack/TensorListFromTensor/element_shape"], "attr": {"element_dtype": {"type": "DT_FLOAT"}, "shape_type": {"type": "DT_INT32"}}}, {"name": "StatefulPartitionedCall/decoder/lstm_30/PartitionedCall/transpose_1", "op": "Transpose", "input": ["StatefulPartitionedCall/decoder/lstm_30/PartitionedCall/TensorArrayV2Stack/TensorListStack", "StatefulPartitionedCall/decoder/lstm_30/PartitionedCall/transpose_1/perm"], "attr": {"Tperm": {"type": "DT_INT32"}, "T": {"type": "DT_FLOAT"}}}, {"name": "StatefulPartitionedCall/decoder/lstm_31/Shape_1", "op": "Shape", "input": ["StatefulPartitionedCall/decoder/lstm_30/PartitionedCall/TensorArrayV2Stack/TensorListStack"], "attr": {"T": {"type": "DT_FLOAT"}, "out_type": {"type": "DT_INT32"}}}, {"name": "StatefulPartitionedCall/decoder/lstm_31/TensorArrayUnstack/TensorListFromTensor", "op": "TensorListFromTensor", "input": ["StatefulPartitionedCall/decoder/lstm_30/PartitionedCall/TensorArrayV2Stack/TensorListStack", "StatefulPartitionedCall/decoder/lstm_31/TensorArrayUnstack/TensorListFromTensor/element_shape"], "attr": {"element_dtype": {"type": "DT_FLOAT"}, "shape_type": {"type": "DT_INT32"}}}, {"name": "StatefulPartitionedCall/decoder/lstm_32/PartitionedCall/transpose_1", "op": "Transpose", "input": ["StatefulPartitionedCall/decoder/lstm_32/PartitionedCall/TensorArrayV2Stack/TensorListStack", "StatefulPartitionedCall/decoder/lstm_32/PartitionedCall/transpose_1/perm"], "attr": {"Tperm": {"type": "DT_INT32"}, "T": {"type": "DT_FLOAT"}}}, {"name": "StatefulPartitionedCall/decoder/lstm_33/Shape_1", "op": "Shape", "input": ["StatefulPartitionedCall/decoder/lstm_32/PartitionedCall/TensorArrayV2Stack/TensorListStack"], "attr": {"out_type": {"type": "DT_INT32"}, "T": {"type": "DT_FLOAT"}}}, {"name": "StatefulPartitionedCall/decoder/lstm_33/TensorArrayUnstack/TensorListFromTensor", "op": "TensorListFromTensor", "input": ["StatefulPartitionedCall/decoder/lstm_32/PartitionedCall/TensorArrayV2Stack/TensorListStack", "StatefulPartitionedCall/decoder/lstm_33/TensorArrayUnstack/TensorListFromTensor/element_shape"], "attr": {"shape_type": {"type": "DT_INT32"}, "element_dtype": {"type": "DT_FLOAT"}}}, {"name": "StatefulPartitionedCall/decoder/lstm_35/Shape", "op": "Shape", "input": ["StatefulPartitionedCall/decoder/lstm_34/PartitionedCall/transpose_1"], "attr": {"out_type": {"type": "DT_INT32"}, "T": {"type": "DT_FLOAT"}}}, {"name": "StatefulPartitionedCall/decoder/lstm_35/PartitionedCall/strided_slice", "op": "StridedSlice", "input": ["StatefulPartitionedCall/decoder/lstm_35/PartitionedCall/Shape", "StatefulPartitionedCall/decoder/lstm_35/PartitionedCall/strided_slice/stack", "StatefulPartitionedCall/decoder/lstm_35/PartitionedCall/strided_slice/stack_1", "StatefulPartitionedCall/decoder/lstm_35/PartitionedCall/strided_slice/stack_2"], "attr": {"ellipsis_mask": {"i": "0"}, "Index": {"type": "DT_INT32"}, "T": {"type": "DT_INT32"}, "end_mask": {"i": "0"}, "shrink_axis_mask": {"i": "1"}, "begin_mask": {"i": "0"}, "new_axis_mask": {"i": "0"}}}, {"name": "StatefulPartitionedCall/decoder/lstm_31/Shape", "op": "Shape", "input": ["StatefulPartitionedCall/decoder/lstm_30/PartitionedCall/transpose_1"], "attr": {"out_type": {"type": "DT_INT32"}, "T": {"type": "DT_FLOAT"}}}, {"name": "StatefulPartitionedCall/decoder/lstm_31/strided_slice_1", "op": "StridedSlice", "input": ["StatefulPartitionedCall/decoder/lstm_31/Shape_1", "StatefulPartitionedCall/decoder/lstm_31/strided_slice_1/stack", "StatefulPartitionedCall/decoder/lstm_31/strided_slice_1/stack_1", "StatefulPartitionedCall/decoder/lstm_31/strided_slice_1/stack_2"], "attr": {"end_mask": {"i": "0"}, "new_axis_mask": {"i": "0"}, "T": {"type": "DT_INT32"}, "begin_mask": {"i": "0"}, "Index": {"type": "DT_INT32"}, "ellipsis_mask": {"i": "0"}, "shrink_axis_mask": {"i": "1"}}}, {"name": "StatefulPartitionedCall/decoder/lstm_33/Shape", "op": "Shape", "input": ["StatefulPartitionedCall/decoder/lstm_32/PartitionedCall/transpose_1"], "attr": {"out_type": {"type": "DT_INT32"}, "T": {"type": "DT_FLOAT"}}}, {"name": "StatefulPartitionedCall/decoder/lstm_33/strided_slice_1", "op": "StridedSlice", "input": ["StatefulPartitionedCall/decoder/lstm_33/Shape_1", "StatefulPartitionedCall/decoder/lstm_33/strided_slice_1/stack", "StatefulPartitionedCall/decoder/lstm_33/strided_slice_1/stack_1", "StatefulPartitionedCall/decoder/lstm_33/strided_slice_1/stack_2"], "attr": {"T": {"type": "DT_INT32"}, "ellipsis_mask": {"i": "0"}, "shrink_axis_mask": {"i": "1"}, "new_axis_mask": {"i": "0"}, "Index": {"type": "DT_INT32"}, "begin_mask": {"i": "0"}, "end_mask": {"i": "0"}}}, {"name": "StatefulPartitionedCall/decoder/lstm_35/strided_slice", "op": "StridedSlice", "input": ["StatefulPartitionedCall/decoder/lstm_35/Shape", "StatefulPartitionedCall/decoder/lstm_35/strided_slice/stack", "StatefulPartitionedCall/decoder/lstm_35/strided_slice/stack_1", "StatefulPartitionedCall/decoder/lstm_35/strided_slice/stack_2"], "attr": {"Index": {"type": "DT_INT32"}, "begin_mask": {"i": "0"}, "ellipsis_mask": {"i": "0"}, "end_mask": {"i": "0"}, "new_axis_mask": {"i": "0"}, "shrink_axis_mask": {"i": "1"}, "T": {"type": "DT_INT32"}}}, {"name": "StatefulPartitionedCall/decoder/lstm_35/PartitionedCall/TensorArrayV2_1", "op": "TensorListReserve", "input": ["StatefulPartitionedCall/decoder/lstm_35/PartitionedCall/TensorArrayV2_1/element_shape", "StatefulPartitionedCall/decoder/lstm_35/PartitionedCall/strided_slice"], "attr": {"element_dtype": {"type": "DT_FLOAT"}, "shape_type": {"type": "DT_INT32"}}}, {"name": "StatefulPartitionedCall/decoder/lstm_31/strided_slice", "op": "StridedSlice", "input": ["StatefulPartitionedCall/decoder/lstm_31/Shape", "StatefulPartitionedCall/decoder/lstm_31/strided_slice/stack", "StatefulPartitionedCall/decoder/lstm_31/strided_slice/stack_1", "StatefulPartitionedCall/decoder/lstm_31/strided_slice/stack_2"], "attr": {"Index": {"type": "DT_INT32"}, "T": {"type": "DT_INT32"}, "end_mask": {"i": "0"}, "begin_mask": {"i": "0"}, "ellipsis_mask": {"i": "0"}, "new_axis_mask": {"i": "0"}, "shrink_axis_mask": {"i": "1"}}}, {"name": "StatefulPartitionedCall/decoder/lstm_31/TensorArrayV2_1", "op": "TensorListReserve", "input": ["StatefulPartitionedCall/decoder/lstm_31/TensorArrayV2_1/element_shape", "StatefulPartitionedCall/decoder/lstm_31/strided_slice_1"], "attr": {"element_dtype": {"type": "DT_FLOAT"}, "shape_type": {"type": "DT_INT32"}}}, {"name": "StatefulPartitionedCall/decoder/lstm_33/strided_slice", "op": "StridedSlice", "input": ["StatefulPartitionedCall/decoder/lstm_33/Shape", "StatefulPartitionedCall/decoder/lstm_33/strided_slice/stack", "StatefulPartitionedCall/decoder/lstm_33/strided_slice/stack_1", "StatefulPartitionedCall/decoder/lstm_33/strided_slice/stack_2"], "attr": {"T": {"type": "DT_INT32"}, "Index": {"type": "DT_INT32"}, "end_mask": {"i": "0"}, "begin_mask": {"i": "0"}, "new_axis_mask": {"i": "0"}, "ellipsis_mask": {"i": "0"}, "shrink_axis_mask": {"i": "1"}}}, {"name": "StatefulPartitionedCall/decoder/lstm_33/TensorArrayV2_1", "op": "TensorListReserve", "input": ["StatefulPartitionedCall/decoder/lstm_33/TensorArrayV2_1/element_shape", "StatefulPartitionedCall/decoder/lstm_33/strided_slice_1"], "attr": {"shape_type": {"type": "DT_INT32"}, "element_dtype": {"type": "DT_FLOAT"}}}, {"name": "StatefulPartitionedCall/decoder/lstm_35/zeros/packed", "op": "Pack", "input": ["StatefulPartitionedCall/decoder/lstm_35/strided_slice", "StatefulPartitionedCall/decoder/lstm_35/zeros/packed/1"], "attr": {"T": {"type": "DT_INT32"}, "N": {"i": "2"}, "axis": {"i": "0"}}}, {"name": "StatefulPartitionedCall/decoder/lstm_35/zeros_1/packed", "op": "Pack", "input": ["StatefulPartitionedCall/decoder/lstm_35/strided_slice", "StatefulPartitionedCall/decoder/lstm_35/zeros_1/packed/1"], "attr": {"N": {"i": "2"}, "axis": {"i": "0"}, "T": {"type": "DT_INT32"}}}, {"name": "StatefulPartitionedCall/decoder/lstm_31/zeros/packed", "op": "Pack", "input": ["StatefulPartitionedCall/decoder/lstm_31/strided_slice", "StatefulPartitionedCall/decoder/lstm_31/zeros/packed/1"], "attr": {"N": {"i": "2"}, "axis": {"i": "0"}, "T": {"type": "DT_INT32"}}}, {"name": "StatefulPartitionedCall/decoder/lstm_31/zeros_1/packed", "op": "Pack", "input": ["StatefulPartitionedCall/decoder/lstm_31/strided_slice", "StatefulPartitionedCall/decoder/lstm_31/zeros_1/packed/1"], "attr": {"axis": {"i": "0"}, "T": {"type": "DT_INT32"}, "N": {"i": "2"}}}, {"name": "StatefulPartitionedCall/decoder/lstm_33/zeros/packed", "op": "Pack", "input": ["StatefulPartitionedCall/decoder/lstm_33/strided_slice", "StatefulPartitionedCall/decoder/lstm_33/zeros/packed/1"], "attr": {"N": {"i": "2"}, "axis": {"i": "0"}, "T": {"type": "DT_INT32"}}}, {"name": "StatefulPartitionedCall/decoder/lstm_33/zeros_1/packed", "op": "Pack", "input": ["StatefulPartitionedCall/decoder/lstm_33/strided_slice", "StatefulPartitionedCall/decoder/lstm_33/zeros_1/packed/1"], "attr": {"N": {"i": "2"}, "T": {"type": "DT_INT32"}, "axis": {"i": "0"}}}, {"name": "StatefulPartitionedCall/decoder/lstm_35/zeros", "op": "Fill", "input": ["StatefulPartitionedCall/decoder/lstm_35/zeros/packed", "StatefulPartitionedCall/decoder/lstm_35/zeros/Const"], "attr": {"index_type": {"type": "DT_INT32"}, "T": {"type": "DT_FLOAT"}}}, {"name": "StatefulPartitionedCall/decoder/lstm_35/zeros_1", "op": "Fill", "input": ["StatefulPartitionedCall/decoder/lstm_35/zeros_1/packed", "StatefulPartitionedCall/decoder/lstm_35/zeros_1/Const"], "attr": {"T": {"type": "DT_FLOAT"}, "index_type": {"type": "DT_INT32"}}}, {"name": "StatefulPartitionedCall/decoder/lstm_31/zeros", "op": "Fill", "input": ["StatefulPartitionedCall/decoder/lstm_31/zeros/packed", "StatefulPartitionedCall/decoder/lstm_31/zeros/Const"], "attr": {"index_type": {"type": "DT_INT32"}, "T": {"type": "DT_FLOAT"}}}, {"name": "StatefulPartitionedCall/decoder/lstm_31/zeros_1", "op": "Fill", "input": ["StatefulPartitionedCall/decoder/lstm_31/zeros_1/packed", "StatefulPartitionedCall/decoder/lstm_31/zeros_1/Const"], "attr": {"T": {"type": "DT_FLOAT"}, "index_type": {"type": "DT_INT32"}}}, {"name": "StatefulPartitionedCall/decoder/lstm_33/zeros", "op": "Fill", "input": ["StatefulPartitionedCall/decoder/lstm_33/zeros/packed", "StatefulPartitionedCall/decoder/lstm_33/zeros/Const"], "attr": {"T": {"type": "DT_FLOAT"}, "index_type": {"type": "DT_INT32"}}}, {"name": "StatefulPartitionedCall/decoder/lstm_33/zeros_1", "op": "Fill", "input": ["StatefulPartitionedCall/decoder/lstm_33/zeros_1/packed", "StatefulPartitionedCall/decoder/lstm_33/zeros_1/Const"], "attr": {"index_type": {"type": "DT_INT32"}, "T": {"type": "DT_FLOAT"}}}, {"name": "StatefulPartitionedCall/decoder/lstm_35/PartitionedCall/while", "op": "StatelessWhile", "input": ["StatefulPartitionedCall/decoder/lstm_35/PartitionedCall/while/loop_counter", "StatefulPartitionedCall/decoder/lstm_35/PartitionedCall/while/maximum_iterations", "StatefulPartitionedCall/decoder/lstm_35/PartitionedCall/time", "StatefulPartitionedCall/decoder/lstm_35/PartitionedCall/TensorArrayV2_1", "StatefulPartitionedCall/decoder/lstm_35/zeros", "StatefulPartitionedCall/decoder/lstm_35/zeros_1", "StatefulPartitionedCall/decoder/lstm_35/PartitionedCall/strided_slice", "StatefulPartitionedCall/decoder/lstm_35/PartitionedCall/TensorArrayUnstack/TensorListFromTensor", "StatefulPartitionedCall/decoder/lstm_35/Read/ReadVariableOp", "StatefulPartitionedCall/decoder/lstm_35/Read_1/ReadVariableOp", "StatefulPartitionedCall/decoder/lstm_35/Read_2/ReadVariableOp"], "attr": {"_num_original_outputs": {"i": "11"}, "body": {"func": {"name": "__inference_while_body_3719_40131"}}, "output_shapes": {"list": {"shape": [{}, {}, {}, {}, {"dim": [{"size": "-1"}, {"size": "9"}]}, {"dim": [{"size": "-1"}, {"size": "9"}]}, {}, {}, {"dim": [{"size": "512"}, {"size": "36"}]}, {"dim": [{"size": "9"}, {"size": "36"}]}, {"dim": [{"size": "36"}]}]}}, "_lower_using_switch_merge": {"b": false}, "parallel_iterations": {"i": "32"}, "cond": {"func": {"name": "__inference_while_cond_3718_32331"}}, "_read_only_resource_inputs": {"list": {}}, "T": {"list": {"type": ["DT_INT32", "DT_INT32", "DT_INT32", "DT_VARIANT", "DT_FLOAT", "DT_FLOAT", "DT_INT32", "DT_VARIANT", "DT_FLOAT", "DT_FLOAT", "DT_FLOAT"]}}}}, {"name": "StatefulPartitionedCall/decoder/lstm_31/while", "op": "While", "input": ["StatefulPartitionedCall/decoder/lstm_31/while/loop_counter", "StatefulPartitionedCall/decoder/lstm_31/while/maximum_iterations", "StatefulPartitionedCall/decoder/lstm_31/time", "StatefulPartitionedCall/decoder/lstm_31/TensorArrayV2_1", "StatefulPartitionedCall/decoder/lstm_31/zeros", "StatefulPartitionedCall/decoder/lstm_31/zeros_1", "StatefulPartitionedCall/decoder/lstm_31/strided_slice_1", "StatefulPartitionedCall/decoder/lstm_31/TensorArrayUnstack/TensorListFromTensor", "unknown_16", "unknown_17", "unknown_18"], "attr": {"parallel_iterations": {"i": "32"}, "cond": {"func": {"name": "__inference_decoder_lstm_31_while_cond_4286_frozen_58459"}}, "body": {"func": {"name": "__inference_decoder_lstm_31_while_body_4287_frozen_58452"}}, "_num_original_outputs": {"i": "11"}, "output_shapes": {"list": {"shape": [{}, {}, {}, {}, {"dim": [{"size": "-1"}, {"size": "9"}]}, {"dim": [{"size": "-1"}, {"size": "9"}]}, {}, {}, {"dim": [{"size": "512"}, {"size": "36"}]}, {"dim": [{"size": "9"}, {"size": "36"}]}, {"dim": [{"size": "36"}]}]}}, "_lower_using_switch_merge": {"b": false}, "_read_only_resource_inputs": {"list": {"i": ["8", "9", "10"]}}, "T": {"list": {"type": ["DT_INT32", "DT_INT32", "DT_INT32", "DT_VARIANT", "DT_FLOAT", "DT_FLOAT", "DT_INT32", "DT_VARIANT", "DT_FLOAT", "DT_FLOAT", "DT_FLOAT"]}}}}, {"name": "StatefulPartitionedCall/decoder/lstm_33/while", "op": "While", "input": ["StatefulPartitionedCall/decoder/lstm_33/while/loop_counter", "StatefulPartitionedCall/decoder/lstm_33/while/maximum_iterations", "StatefulPartitionedCall/decoder/lstm_33/time", "StatefulPartitionedCall/decoder/lstm_33/TensorArrayV2_1", "StatefulPartitionedCall/decoder/lstm_33/zeros", "StatefulPartitionedCall/decoder/lstm_33/zeros_1", "StatefulPartitionedCall/decoder/lstm_33/strided_slice_1", "StatefulPartitionedCall/decoder/lstm_33/TensorArrayUnstack/TensorListFromTensor", "unknown_13", "unknown_14", "unknown_15"], "attr": {"_read_only_resource_inputs": {"list": {"i": ["8", "9", "10"]}}, "cond": {"func": {"name": "__inference_decoder_lstm_33_while_cond_4139_frozen_58450"}}, "T": {"list": {"type": ["DT_INT32", "DT_INT32", "DT_INT32", "DT_VARIANT", "DT_FLOAT", "DT_FLOAT", "DT_INT32", "DT_VARIANT", "DT_FLOAT", "DT_FLOAT", "DT_FLOAT"]}}, "output_shapes": {"list": {"shape": [{}, {}, {}, {}, {"dim": [{"size": "-1"}, {"size": "9"}]}, {"dim": [{"size": "-1"}, {"size": "9"}]}, {}, {}, {"dim": [{"size": "512"}, {"size": "36"}]}, {"dim": [{"size": "9"}, {"size": "36"}]}, {"dim": [{"size": "36"}]}]}}, "_lower_using_switch_merge": {"b": false}, "parallel_iterations": {"i": "32"}, "body": {"func": {"name": "__inference_decoder_lstm_33_while_body_4140_frozen_58455"}}, "_num_original_outputs": {"i": "11"}}}, {"name": "StatefulPartitionedCall/decoder/lstm_35/PartitionedCall/TensorArrayV2Stack/TensorListStack", "op": "TensorListStack", "input": ["StatefulPartitionedCall/decoder/lstm_35/PartitionedCall/while:3", "StatefulPartitionedCall/decoder/lstm_35/PartitionedCall/TensorArrayV2Stack/TensorListStack/element_shape"], "attr": {"num_elements": {"i": "-1"}, "element_dtype": {"type": "DT_FLOAT"}}}, {"name": "StatefulPartitionedCall/decoder/lstm_31/TensorArrayV2Stack/TensorListStack", "op": "TensorListStack", "input": ["StatefulPartitionedCall/decoder/lstm_31/while:3", "StatefulPartitionedCall/decoder/lstm_31/TensorArrayV2Stack/TensorListStack/element_shape"], "attr": {"num_elements": {"i": "-1"}, "element_dtype": {"type": "DT_FLOAT"}}}, {"name": "StatefulPartitionedCall/decoder/lstm_33/TensorArrayV2Stack/TensorListStack", "op": "TensorListStack", "input": ["StatefulPartitionedCall/decoder/lstm_33/while:3", "StatefulPartitionedCall/decoder/lstm_33/TensorArrayV2Stack/TensorListStack/element_shape"], "attr": {"element_dtype": {"type": "DT_FLOAT"}, "num_elements": {"i": "-1"}}}, {"name": "Func/StatefulPartitionedCall/output_control_node/_24", "op": "NoOp", "input": ["^StatefulPartitionedCall/decoder/lstm_31/while", "^StatefulPartitionedCall/decoder/lstm_33/while"]}, {"name": "StatefulPartitionedCall/decoder/lstm_35/PartitionedCall/transpose_1", "op": "Transpose", "input": ["StatefulPartitionedCall/decoder/lstm_35/PartitionedCall/TensorArrayV2Stack/TensorListStack", "StatefulPartitionedCall/decoder/lstm_35/PartitionedCall/transpose_1/perm"], "attr": {"Tperm": {"type": "DT_INT32"}, "T": {"type": "DT_FLOAT"}}}, {"name": "StatefulPartitionedCall/decoder/lstm_31/transpose_1", "op": "Transpose", "input": ["StatefulPartitionedCall/decoder/lstm_31/TensorArrayV2Stack/TensorListStack", "StatefulPartitionedCall/decoder/lstm_31/transpose_1/perm"], "attr": {"Tperm": {"type": "DT_INT32"}, "T": {"type": "DT_FLOAT"}}}, {"name": "StatefulPartitionedCall/decoder/lstm_33/transpose_1", "op": "Transpose", "input": ["StatefulPartitionedCall/decoder/lstm_33/TensorArrayV2Stack/TensorListStack", "StatefulPartitionedCall/decoder/lstm_33/transpose_1/perm"], "attr": {"Tperm": {"type": "DT_INT32"}, "T": {"type": "DT_FLOAT"}}}, {"name": "Identity_2", "op": "Identity", "input": ["StatefulPartitionedCall/decoder/lstm_35/PartitionedCall/transpose_1", "^Func/StatefulPartitionedCall/output_control_node/_24"], "attr": {"T": {"type": "DT_FLOAT"}}}, {"name": "Identity", "op": "Identity", "input": ["StatefulPartitionedCall/decoder/lstm_31/transpose_1", "^Func/StatefulPartitionedCall/output_control_node/_24"], "attr": {"T": {"type": "DT_FLOAT"}}}, {"name": "Identity_1", "op": "Identity", "input": ["StatefulPartitionedCall/decoder/lstm_33/transpose_1", "^Func/StatefulPartitionedCall/output_control_node/_24"], "attr": {"T": {"type": "DT_FLOAT"}}}], "library": {"function": [{"signature": {"name": "__inference_while_cond_3285_42363", "inputArg": [{"name": "while_while_loop_counter", "type": "DT_INT32"}, {"name": "while_while_maximum_iterations", "type": "DT_INT32"}, {"name": "while_placeholder", "type": "DT_INT32"}, {"name": "while_placeholder_1", "type": "DT_VARIANT"}, {"name": "while_placeholder_2", "type": "DT_FLOAT"}, {"name": "while_placeholder_3", "type": "DT_FLOAT"}, {"name": "while_less_strided_slice", "type": "DT_INT32"}, {"name": "while_while_cond_3285___redundant_placeholder0", "type": "DT_VARIANT"}, {"name": "while_while_cond_3285___redundant_placeholder1", "type": "DT_FLOAT"}, {"name": "while_while_cond_3285___redundant_placeholder2", "type": "DT_FLOAT"}, {"name": "while_while_cond_3285___redundant_placeholder3", "type": "DT_FLOAT"}], "outputArg": [{"name": "while_identity", "type": "DT_BOOL"}]}, "nodeDef": [{"name": "while/Less", "op": "Less", "input": ["while_placeholder", "while_less_strided_slice"], "attr": {"T": {"type": "DT_INT32"}}}], "ret": {"while_identity": "while/Less:z:0"}, "attr": {"_construction_context": {"s": "a0VhZ2VyUnVudGltZQ=="}}, "argAttr": {"4": {"attr": {"_output_shapes": {"list": {"shape": [{"dim": [{"size": "-1"}, {"size": "512"}]}]}}}}, "9": {"attr": {"_output_shapes": {"list": {"shape": [{"unknownRank": true}]}}}}, "2": {"attr": {"_output_shapes": {"list": {"shape": [{}]}}}}, "7": {"attr": {"_output_shapes": {"list": {"shape": [{"unknownRank": true}]}}}}, "0": {"attr": {"_output_shapes": {"list": {"shape": [{}]}}}}, "5": {"attr": {"_output_shapes": {"list": {"shape": [{"dim": [{"size": "-1"}, {"size": "512"}]}]}}}}, "10": {"attr": {"_output_shapes": {"list": {"shape": [{"unknownRank": true}]}}}}, "8": {"attr": {"_output_shapes": {"list": {"shape": [{"unknownRank": true}]}}}}, "3": {"attr": {"_output_shapes": {"list": {"shape": [{}]}}}}, "6": {"attr": {"_output_shapes": {"list": {"shape": [{}]}}}}, "1": {"attr": {"_output_shapes": {"list": {"shape": [{}]}}}}}}, {"signature": {"name": "__inference_while_cond_2419_38400", "inputArg": [{"name": "while_while_loop_counter", "type": "DT_INT32"}, {"name": "while_while_maximum_iterations", "type": "DT_INT32"}, {"name": "while_placeholder", "type": "DT_INT32"}, {"name": "while_placeholder_1", "type": "DT_VARIANT"}, {"name": "while_placeholder_2", "type": "DT_FLOAT"}, {"name": "while_placeholder_3", "type": "DT_FLOAT"}, {"name": "while_less_strided_slice", "type": "DT_INT32"}, {"name": "while_while_cond_2419___redundant_placeholder0", "type": "DT_VARIANT"}, {"name": "while_while_cond_2419___redundant_placeholder1", "type": "DT_FLOAT"}, {"name": "while_while_cond_2419___redundant_placeholder2", "type": "DT_FLOAT"}, {"name": "while_while_cond_2419___redundant_placeholder3", "type": "DT_FLOAT"}], "outputArg": [{"name": "while_identity", "type": "DT_BOOL"}]}, "nodeDef": [{"name": "while/Less", "op": "Less", "input": ["while_placeholder", "while_less_strided_slice"], "attr": {"T": {"type": "DT_INT32"}}}], "ret": {"while_identity": "while/Less:z:0"}, "attr": {"_construction_context": {"s": "a0VhZ2VyUnVudGltZQ=="}}, "argAttr": {"8": {"attr": {"_output_shapes": {"list": {"shape": [{"unknownRank": true}]}}}}, "5": {"attr": {"_output_shapes": {"list": {"shape": [{"dim": [{"size": "-1"}, {"size": "512"}]}]}}}}, "10": {"attr": {"_output_shapes": {"list": {"shape": [{"unknownRank": true}]}}}}, "0": {"attr": {"_output_shapes": {"list": {"shape": [{}]}}}}, "7": {"attr": {"_output_shapes": {"list": {"shape": [{"unknownRank": true}]}}}}, "9": {"attr": {"_output_shapes": {"list": {"shape": [{"unknownRank": true}]}}}}, "2": {"attr": {"_output_shapes": {"list": {"shape": [{}]}}}}, "4": {"attr": {"_output_shapes": {"list": {"shape": [{"dim": [{"size": "-1"}, {"size": "512"}]}]}}}}, "1": {"attr": {"_output_shapes": {"list": {"shape": [{}]}}}}, "6": {"attr": {"_output_shapes": {"list": {"shape": [{}]}}}}, "3": {"attr": {"_output_shapes": {"list": {"shape": [{}]}}}}}}, {"signature": {"name": "__inference_while_body_3286_50228", "inputArg": [{"name": "while_while_loop_counter", "type": "DT_INT32"}, {"name": "while_while_maximum_iterations", "type": "DT_INT32"}, {"name": "while_placeholder", "type": "DT_INT32"}, {"name": "while_placeholder_1", "type": "DT_VARIANT"}, {"name": "while_placeholder_2", "type": "DT_FLOAT"}, {"name": "while_placeholder_3", "type": "DT_FLOAT"}, {"name": "while_strided_slice_0", "type": "DT_INT32"}, {"name": "while_tensorarrayv2read_tensorlistgetitem_tensorarrayunstack_tensorlistfromtensor_0", "type": "DT_VARIANT"}, {"name": "while_matmul_kernel_0", "type": "DT_FLOAT"}, {"name": "while_matmul_1_recurrent_kernel_0", "type": "DT_FLOAT"}, {"name": "while_biasadd_bias_0", "type": "DT_FLOAT"}], "outputArg": [{"name": "while_identity", "type": "DT_INT32"}, {"name": "while_identity_1", "type": "DT_INT32"}, {"name": "while_identity_2", "type": "DT_INT32"}, {"name": "while_identity_3", "type": "DT_VARIANT"}, {"name": "while_identity_4", "type": "DT_FLOAT"}, {"name": "while_identity_5", "type": "DT_FLOAT"}, {"name": "while_strided_slice", "type": "DT_INT32"}, {"name": "while_tensorarrayv2read_tensorlistgetitem_tensorarrayunstack_tensorlistfromtensor", "type": "DT_VARIANT"}, {"name": "while_matmul_kernel", "type": "DT_FLOAT"}, {"name": "while_matmul_1_recurrent_kernel", "type": "DT_FLOAT"}, {"name": "while_biasadd_bias", "type": "DT_FLOAT"}]}, "nodeDef": [{"name": "__inference_while_body_3286_50228/while/add_2/y", "op": "Const", "attr": {"dtype": {"type": "DT_INT32"}, "value": {"tensor": {"dtype": "DT_INT32", "tensorShape": {}}}}}, {"name": "__inference_while_body_3286_50228/while/split/split_dim", "op": "Const", "attr": {"value": {"tensor": {"dtype": "DT_INT32", "tensorShape": {}}}, "dtype": {"type": "DT_INT32"}}}, {"name": "__inference_while_body_3286_50228/while/TensorArrayV2Read/TensorListGetItem/element_shape", "op": "Const", "attr": {"dtype": {"type": "DT_INT32"}, "value": {"tensor": {"dtype": "DT_INT32", "tensorShape": {"dim": [{"size": "2"}]}}}}}, {"name": "__inference_while_body_3286_50228/while/add_3/y", "op": "Const", "attr": {"value": {"tensor": {"dtype": "DT_INT32", "tensorShape": {}}}, "dtype": {"type": "DT_INT32"}}}, {"name": "while/MatMul_1", "op": "MatMul", "input": ["while_placeholder_2", "while_matmul_1_recurrent_kernel_0"], "attr": {"transpose_b": {"b": false}, "transpose_a": {"b": false}, "T": {"type": "DT_FLOAT"}}}, {"name": "while/add_2", "op": "AddV2", "input": ["while_placeholder", "__inference_while_body_3286_50228/while/add_2/y:output:0"], "attr": {"T": {"type": "DT_INT32"}}}, {"name": "while/TensorArrayV2Read/TensorListGetItem", "op": "TensorListGetItem", "input": ["while_tensorarrayv2read_tensorlistgetitem_tensorarrayunstack_tensorlistfromtensor_0", "while_placeholder", "__inference_while_body_3286_50228/while/TensorArrayV2Read/TensorListGetItem/element_shape:output:0"], "attr": {"element_dtype": {"type": "DT_FLOAT"}}}, {"name": "while/add_3", "op": "AddV2", "input": ["while_while_loop_counter", "__inference_while_body_3286_50228/while/add_3/y:output:0"], "attr": {"T": {"type": "DT_INT32"}}}, {"name": "while/MatMul", "op": "MatMul", "input": ["while/TensorArrayV2Read/TensorListGetItem:item:0", "while_matmul_kernel_0"], "attr": {"transpose_a": {"b": false}, "T": {"type": "DT_FLOAT"}, "transpose_b": {"b": false}}}, {"name": "while/add", "op": "AddV2", "input": ["while/MatMul:product:0", "while/MatMul_1:product:0"], "attr": {"T": {"type": "DT_FLOAT"}}}, {"name": "while/BiasAdd", "op": "BiasAdd", "input": ["while/add:z:0", "while_biasadd_bias_0"], "attr": {"T": {"type": "DT_FLOAT"}, "data_format": {"s": "TkhXQw=="}}}, {"name": "while/split", "op": "Split", "input": ["__inference_while_body_3286_50228/while/split/split_dim:output:0", "while/BiasAdd:output:0"], "attr": {"T": {"type": "DT_FLOAT"}, "num_split": {"i": "4"}}}, {"name": "while/Sigmoid", "op": "Sigmoid", "input": ["while/split:output:0"], "attr": {"T": {"type": "DT_FLOAT"}}}, {"name": "while/Sigmoid_1", "op": "Sigmoid", "input": ["while/split:output:1"], "attr": {"T": {"type": "DT_FLOAT"}}}, {"name": "while/Tanh", "op": "Tanh", "input": ["while/split:output:2"], "attr": {"T": {"type": "DT_FLOAT"}}}, {"name": "while/Sigmoid_2", "op": "Sigmoid", "input": ["while/split:output:3"], "attr": {"T": {"type": "DT_FLOAT"}}}, {"name": "while/mul", "op": "Mul", "input": ["while/Sigmoid_1:y:0", "while_placeholder_3"], "attr": {"T": {"type": "DT_FLOAT"}}}, {"name": "while/mul_1", "op": "Mul", "input": ["while/Sigmoid:y:0", "while/Tanh:y:0"], "attr": {"T": {"type": "DT_FLOAT"}}}, {"name": "while/add_1", "op": "AddV2", "input": ["while/mul:z:0", "while/mul_1:z:0"], "attr": {"T": {"type": "DT_FLOAT"}}}, {"name": "while/Tanh_1", "op": "Tanh", "input": ["while/add_1:z:0"], "attr": {"T": {"type": "DT_FLOAT"}}}, {"name": "while/mul_2", "op": "Mul", "input": ["while/Sigmoid_2:y:0", "while/Tanh_1:y:0"], "attr": {"T": {"type": "DT_FLOAT"}}}, {"name": "while/TensorArrayV2Write/TensorListSetItem", "op": "TensorListSetItem", "input": ["while_placeholder_1", "while_placeholder", "while/mul_2:z:0"], "attr": {"element_dtype": {"type": "DT_FLOAT"}}}], "ret": {"while_identity_2": "while/add_2:z:0", "while_strided_slice": "while_strided_slice_0", "while_biasadd_bias": "while_biasadd_bias_0", "while_identity_3": "while/TensorArrayV2Write/TensorListSetItem:output_handle:0", "while_identity_5": "while/add_1:z:0", "while_identity": "while/add_3:z:0", "while_matmul_kernel": "while_matmul_kernel_0", "while_identity_1": "while_while_maximum_iterations", "while_matmul_1_recurrent_kernel": "while_matmul_1_recurrent_kernel_0", "while_identity_4": "while/mul_2:z:0", "while_tensorarrayv2read_tensorlistgetitem_tensorarrayunstack_tensorlistfromtensor": "while_tensorarrayv2read_tensorlistgetitem_tensorarrayunstack_tensorlistfromtensor_0"}, "attr": {"_construction_context": {"s": "a0VhZ2VyUnVudGltZQ=="}}, "argAttr": {"9": {"attr": {"_output_shapes": {"list": {"shape": [{"dim": [{"size": "512"}, {"size": "2048"}]}]}}}}, "3": {"attr": {"_output_shapes": {"list": {"shape": [{}]}}}}, "6": {"attr": {"_output_shapes": {"list": {"shape": [{}]}}}}, "10": {"attr": {"_output_shapes": {"list": {"shape": [{"dim": [{"size": "2048"}]}]}}}}, "1": {"attr": {"_output_shapes": {"list": {"shape": [{}]}}}}, "4": {"attr": {"_output_shapes": {"list": {"shape": [{"dim": [{"size": "-1"}, {"size": "512"}]}]}}}}, "8": {"attr": {"_output_shapes": {"list": {"shape": [{"dim": [{"size": "512"}, {"size": "2048"}]}]}}}}, "2": {"attr": {"_output_shapes": {"list": {"shape": [{}]}}}}, "0": {"attr": {"_output_shapes": {"list": {"shape": [{}]}}}}, "7": {"attr": {"_output_shapes": {"list": {"shape": [{}]}}}}, "5": {"attr": {"_output_shapes": {"list": {"shape": [{"dim": [{"size": "-1"}, {"size": "512"}]}]}}}}}}, {"signature": {"name": "__inference_decoder_lstm_31_while_body_4287_frozen_58452", "inputArg": [{"name": "decoder_lstm_31_while_decoder_lstm_31_while_loop_counter", "type": "DT_INT32"}, {"name": "decoder_lstm_31_while_decoder_lstm_31_while_maximum_iterations", "type": "DT_INT32"}, {"name": "decoder_lstm_31_while_placeholder", "type": "DT_INT32"}, {"name": "decoder_lstm_31_while_placeholder_1", "type": "DT_VARIANT"}, {"name": "decoder_lstm_31_while_placeholder_2", "type": "DT_FLOAT"}, {"name": "decoder_lstm_31_while_placeholder_3", "type": "DT_FLOAT"}, {"name": "decoder_lstm_31_while_decoder_lstm_31_strided_slice_1_0", "type": "DT_INT32"}, {"name": "decoder_lstm_31_while_tensorarrayv2read_tensorlistgetitem_decoder_lstm_31_tensorarrayunstack_tensorlistfromtensor_0", "type": "DT_VARIANT"}, {"name": "decoder_lstm_31_while_lstm_cell_3_matmul_readvariableop_resource_0", "type": "DT_FLOAT"}, {"name": "decoder_lstm_31_while_lstm_cell_3_matmul_1_readvariableop_resource_0", "type": "DT_FLOAT"}, {"name": "decoder_lstm_31_while_lstm_cell_3_biasadd_readvariableop_resource_0", "type": "DT_FLOAT"}], "outputArg": [{"name": "decoder_lstm_31_while_identity", "type": "DT_INT32"}, {"name": "decoder_lstm_31_while_identity_1", "type": "DT_INT32"}, {"name": "decoder_lstm_31_while_identity_2", "type": "DT_INT32"}, {"name": "decoder_lstm_31_while_identity_3", "type": "DT_VARIANT"}, {"name": "decoder_lstm_31_while_identity_4", "type": "DT_FLOAT"}, {"name": "decoder_lstm_31_while_identity_5", "type": "DT_FLOAT"}, {"name": "decoder_lstm_31_while_decoder_lstm_31_strided_slice_1", "type": "DT_INT32"}, {"name": "decoder_lstm_31_while_tensorarrayv2read_tensorlistgetitem_decoder_lstm_31_tensorarrayunstack_tensorlistfromtensor", "type": "DT_VARIANT"}, {"name": "decoder_lstm_31_while_lstm_cell_3_matmul_readvariableop_resource", "type": "DT_FLOAT"}, {"name": "decoder_lstm_31_while_lstm_cell_3_matmul_1_readvariableop_resource", "type": "DT_FLOAT"}, {"name": "decoder_lstm_31_while_lstm_cell_3_biasadd_readvariableop_resource", "type": "DT_FLOAT"}], "isStateful": true, "controlOutput": ["decoder/lstm_31/while/lstm_cell_3/MatMul/ReadVariableOp", "decoder/lstm_31/while/lstm_cell_3/MatMul_1/ReadVariableOp", "decoder/lstm_31/while/lstm_cell_3/BiasAdd/ReadVariableOp"]}, "nodeDef": [{"name": "__inference_decoder_lstm_31_while_body_4287_frozen_58452/decoder/lstm_31/while/add/y", "op": "Const", "attr": {"dtype": {"type": "DT_INT32"}, "value": {"tensor": {"dtype": "DT_INT32", "tensorShape": {}}}}}, {"name": "__inference_decoder_lstm_31_while_body_4287_frozen_58452/decoder/lstm_31/while/lstm_cell_3/split/split_dim", "op": "Const", "attr": {"dtype": {"type": "DT_INT32"}, "value": {"tensor": {"dtype": "DT_INT32", "tensorShape": {}}}}}, {"name": "__inference_decoder_lstm_31_while_body_4287_frozen_58452/decoder/lstm_31/while/TensorArrayV2Read/TensorListGetItem/element_shape", "op": "Const", "attr": {"dtype": {"type": "DT_INT32"}, "value": {"tensor": {"dtype": "DT_INT32", "tensorShape": {"dim": [{"size": "2"}]}}}}}, {"name": "__inference_decoder_lstm_31_while_body_4287_frozen_58452/decoder/lstm_31/while/add_1/y", "op": "Const", "attr": {"value": {"tensor": {"dtype": "DT_INT32", "tensorShape": {}}}, "dtype": {"type": "DT_INT32"}}}, {"name": "decoder/lstm_31/while/lstm_cell_3/MatMul/ReadVariableOp", "op": "Identity", "input": ["decoder_lstm_31_while_lstm_cell_3_matmul_readvariableop_resource_0"], "attr": {"T": {"type": "DT_FLOAT"}}}, {"name": "decoder/lstm_31/while/lstm_cell_3/MatMul_1/ReadVariableOp", "op": "Identity", "input": ["decoder_lstm_31_while_lstm_cell_3_matmul_1_readvariableop_resource_0"], "attr": {"T": {"type": "DT_FLOAT"}}}, {"name": "decoder/lstm_31/while/lstm_cell_3/BiasAdd/ReadVariableOp", "op": "Identity", "input": ["decoder_lstm_31_while_lstm_cell_3_biasadd_readvariableop_resource_0"], "attr": {"T": {"type": "DT_FLOAT"}}}, {"name": "decoder/lstm_31/while/add", "op": "AddV2", "input": ["decoder_lstm_31_while_placeholder", "__inference_decoder_lstm_31_while_body_4287_frozen_58452/decoder/lstm_31/while/add/y:output:0"], "attr": {"T": {"type": "DT_INT32"}}}, {"name": "decoder/lstm_31/while/TensorArrayV2Read/TensorListGetItem", "op": "TensorListGetItem", "input": ["decoder_lstm_31_while_tensorarrayv2read_tensorlistgetitem_decoder_lstm_31_tensorarrayunstack_tensorlistfromtensor_0", "decoder_lstm_31_while_placeholder", "__inference_decoder_lstm_31_while_body_4287_frozen_58452/decoder/lstm_31/while/TensorArrayV2Read/TensorListGetItem/element_shape:output:0"], "attr": {"element_dtype": {"type": "DT_FLOAT"}}}, {"name": "decoder/lstm_31/while/add_1", "op": "AddV2", "input": ["decoder_lstm_31_while_decoder_lstm_31_while_loop_counter", "__inference_decoder_lstm_31_while_body_4287_frozen_58452/decoder/lstm_31/while/add_1/y:output:0"], "attr": {"T": {"type": "DT_INT32"}}}, {"name": "decoder/lstm_31/while/lstm_cell_3/MatMul_1", "op": "MatMul", "input": ["decoder_lstm_31_while_placeholder_2", "decoder/lstm_31/while/lstm_cell_3/MatMul_1/ReadVariableOp:output:0"], "attr": {"transpose_b": {"b": false}, "T": {"type": "DT_FLOAT"}, "transpose_a": {"b": false}}}, {"name": "decoder/lstm_31/while/Identity_1", "op": "Identity", "input": ["decoder_lstm_31_while_decoder_lstm_31_while_maximum_iterations", "^decoder/lstm_31/while/lstm_cell_3/BiasAdd/ReadVariableOp", "^decoder/lstm_31/while/lstm_cell_3/MatMul/ReadVariableOp", "^decoder/lstm_31/while/lstm_cell_3/MatMul_1/ReadVariableOp"], "attr": {"T": {"type": "DT_INT32"}}}, {"name": "decoder/lstm_31/while/Identity_2", "op": "Identity", "input": ["decoder/lstm_31/while/add:z:0", "^decoder/lstm_31/while/lstm_cell_3/BiasAdd/ReadVariableOp", "^decoder/lstm_31/while/lstm_cell_3/MatMul/ReadVariableOp", "^decoder/lstm_31/while/lstm_cell_3/MatMul_1/ReadVariableOp"], "attr": {"T": {"type": "DT_INT32"}}}, {"name": "decoder/lstm_31/while/lstm_cell_3/MatMul", "op": "MatMul", "input": ["decoder/lstm_31/while/TensorArrayV2Read/TensorListGetItem:item:0", "decoder/lstm_31/while/lstm_cell_3/MatMul/ReadVariableOp:output:0"], "attr": {"transpose_b": {"b": false}, "T": {"type": "DT_FLOAT"}, "transpose_a": {"b": false}}}, {"name": "decoder/lstm_31/while/Identity", "op": "Identity", "input": ["decoder/lstm_31/while/add_1:z:0", "^decoder/lstm_31/while/lstm_cell_3/BiasAdd/ReadVariableOp", "^decoder/lstm_31/while/lstm_cell_3/MatMul/ReadVariableOp", "^decoder/lstm_31/while/lstm_cell_3/MatMul_1/ReadVariableOp"], "attr": {"T": {"type": "DT_INT32"}}}, {"name": "decoder/lstm_31/while/lstm_cell_3/add", "op": "AddV2", "input": ["decoder/lstm_31/while/lstm_cell_3/MatMul:product:0", "decoder/lstm_31/while/lstm_cell_3/MatMul_1:product:0"], "attr": {"T": {"type": "DT_FLOAT"}}}, {"name": "decoder/lstm_31/while/lstm_cell_3/BiasAdd", "op": "BiasAdd", "input": ["decoder/lstm_31/while/lstm_cell_3/add:z:0", "decoder/lstm_31/while/lstm_cell_3/BiasAdd/ReadVariableOp:output:0"], "attr": {"data_format": {"s": "TkhXQw=="}, "T": {"type": "DT_FLOAT"}}}, {"name": "decoder/lstm_31/while/lstm_cell_3/ArithmeticOptimizer/_decoder/lstm_31/while/lstm_cell_3/Sigmoid_split", "op": "Sigmoid", "input": ["decoder/lstm_31/while/lstm_cell_3/BiasAdd:output:0"], "attr": {"T": {"type": "DT_FLOAT"}}}, {"name": "decoder/lstm_31/while/lstm_cell_3/split", "op": "Split", "input": ["__inference_decoder_lstm_31_while_body_4287_frozen_58452/decoder/lstm_31/while/lstm_cell_3/split/split_dim:output:0", "decoder/lstm_31/while/lstm_cell_3/ArithmeticOptimizer/_decoder/lstm_31/while/lstm_cell_3/Sigmoid_split:y:0"], "attr": {"num_split": {"i": "4"}, "T": {"type": "DT_FLOAT"}}}, {"name": "decoder/lstm_31/while/lstm_cell_3/mul", "op": "Mul", "input": ["decoder/lstm_31/while/lstm_cell_3/split:output:1", "decoder_lstm_31_while_placeholder_3"], "attr": {"T": {"type": "DT_FLOAT"}}}, {"name": "decoder/lstm_31/while/lstm_cell_3/mul_1", "op": "Mul", "input": ["decoder/lstm_31/while/lstm_cell_3/split:output:0", "decoder/lstm_31/while/lstm_cell_3/split:output:2"], "attr": {"T": {"type": "DT_FLOAT"}}}, {"name": "decoder/lstm_31/while/lstm_cell_3/add_1", "op": "AddV2", "input": ["decoder/lstm_31/while/lstm_cell_3/mul:z:0", "decoder/lstm_31/while/lstm_cell_3/mul_1:z:0"], "attr": {"T": {"type": "DT_FLOAT"}}}, {"name": "decoder/lstm_31/while/lstm_cell_3/Sigmoid_4", "op": "Sigmoid", "input": ["decoder/lstm_31/while/lstm_cell_3/add_1:z:0"], "attr": {"T": {"type": "DT_FLOAT"}}}, {"name": "decoder/lstm_31/while/lstm_cell_3/mul_2", "op": "Mul", "input": ["decoder/lstm_31/while/lstm_cell_3/split:output:3", "decoder/lstm_31/while/lstm_cell_3/Sigmoid_4:y:0"], "attr": {"T": {"type": "DT_FLOAT"}}}, {"name": "decoder/lstm_31/while/TensorArrayV2Write/TensorListSetItem", "op": "TensorListSetItem", "input": ["decoder_lstm_31_while_placeholder_1", "decoder_lstm_31_while_placeholder", "decoder/lstm_31/while/lstm_cell_3/mul_2:z:0"], "attr": {"element_dtype": {"type": "DT_FLOAT"}}}], "ret": {"decoder_lstm_31_while_identity_2": "decoder/lstm_31/while/Identity_2:output:0", "decoder_lstm_31_while_lstm_cell_3_matmul_readvariableop_resource": "decoder_lstm_31_while_lstm_cell_3_matmul_readvariableop_resource_0", "decoder_lstm_31_while_lstm_cell_3_biasadd_readvariableop_resource": "decoder_lstm_31_while_lstm_cell_3_biasadd_readvariableop_resource_0", "decoder_lstm_31_while_identity_4": "decoder/lstm_31/while/lstm_cell_3/mul_2:z:0", "decoder_lstm_31_while_identity_5": "decoder/lstm_31/while/lstm_cell_3/add_1:z:0", "decoder_lstm_31_while_identity": "decoder/lstm_31/while/Identity:output:0", "decoder_lstm_31_while_tensorarrayv2read_tensorlistgetitem_decoder_lstm_31_tensorarrayunstack_tensorlistfromtensor": "decoder_lstm_31_while_tensorarrayv2read_tensorlistgetitem_decoder_lstm_31_tensorarrayunstack_tensorlistfromtensor_0", "decoder_lstm_31_while_decoder_lstm_31_strided_slice_1": "decoder_lstm_31_while_decoder_lstm_31_strided_slice_1_0", "decoder_lstm_31_while_lstm_cell_3_matmul_1_readvariableop_resource": "decoder_lstm_31_while_lstm_cell_3_matmul_1_readvariableop_resource_0", "decoder_lstm_31_while_identity_1": "decoder/lstm_31/while/Identity_1:output:0", "decoder_lstm_31_while_identity_3": "decoder/lstm_31/while/TensorArrayV2Write/TensorListSetItem:output_handle:0"}, "attr": {"_construction_context": {"s": "a0VhZ2VyUnVudGltZQ=="}}, "controlRet": {"decoder/lstm_31/while/lstm_cell_3/BiasAdd/ReadVariableOp": "decoder/lstm_31/while/lstm_cell_3/BiasAdd/ReadVariableOp", "decoder/lstm_31/while/lstm_cell_3/MatMul_1/ReadVariableOp": "decoder/lstm_31/while/lstm_cell_3/MatMul_1/ReadVariableOp", "decoder/lstm_31/while/lstm_cell_3/MatMul/ReadVariableOp": "decoder/lstm_31/while/lstm_cell_3/MatMul/ReadVariableOp"}, "argAttr": {"0": {"attr": {"_output_shapes": {"list": {"shape": [{}]}}}}, "5": {"attr": {"_output_shapes": {"list": {"shape": [{"dim": [{"size": "-1"}, {"size": "9"}]}]}}}}, "7": {"attr": {"_output_shapes": {"list": {"shape": [{}]}}}}, "2": {"attr": {"_output_shapes": {"list": {"shape": [{}]}}}}, "4": {"attr": {"_output_shapes": {"list": {"shape": [{"dim": [{"size": "-1"}, {"size": "9"}]}]}}}}, "6": {"attr": {"_output_shapes": {"list": {"shape": [{}]}}}}, "1": {"attr": {"_output_shapes": {"list": {"shape": [{}]}}}}, "3": {"attr": {"_output_shapes": {"list": {"shape": [{}]}}}}}}, {"signature": {"name": "__inference_decoder_lstm_33_while_body_4140_frozen_58455", "inputArg": [{"name": "decoder_lstm_33_while_decoder_lstm_33_while_loop_counter", "type": "DT_INT32"}, {"name": "decoder_lstm_33_while_decoder_lstm_33_while_maximum_iterations", "type": "DT_INT32"}, {"name": "decoder_lstm_33_while_placeholder", "type": "DT_INT32"}, {"name": "decoder_lstm_33_while_placeholder_1", "type": "DT_VARIANT"}, {"name": "decoder_lstm_33_while_placeholder_2", "type": "DT_FLOAT"}, {"name": "decoder_lstm_33_while_placeholder_3", "type": "DT_FLOAT"}, {"name": "decoder_lstm_33_while_decoder_lstm_33_strided_slice_1_0", "type": "DT_INT32"}, {"name": "decoder_lstm_33_while_tensorarrayv2read_tensorlistgetitem_decoder_lstm_33_tensorarrayunstack_tensorlistfromtensor_0", "type": "DT_VARIANT"}, {"name": "decoder_lstm_33_while_lstm_cell_4_matmul_readvariableop_resource_0", "type": "DT_FLOAT"}, {"name": "decoder_lstm_33_while_lstm_cell_4_matmul_1_readvariableop_resource_0", "type": "DT_FLOAT"}, {"name": "decoder_lstm_33_while_lstm_cell_4_biasadd_readvariableop_resource_0", "type": "DT_FLOAT"}], "outputArg": [{"name": "decoder_lstm_33_while_identity", "type": "DT_INT32"}, {"name": "decoder_lstm_33_while_identity_1", "type": "DT_INT32"}, {"name": "decoder_lstm_33_while_identity_2", "type": "DT_INT32"}, {"name": "decoder_lstm_33_while_identity_3", "type": "DT_VARIANT"}, {"name": "decoder_lstm_33_while_identity_4", "type": "DT_FLOAT"}, {"name": "decoder_lstm_33_while_identity_5", "type": "DT_FLOAT"}, {"name": "decoder_lstm_33_while_decoder_lstm_33_strided_slice_1", "type": "DT_INT32"}, {"name": "decoder_lstm_33_while_tensorarrayv2read_tensorlistgetitem_decoder_lstm_33_tensorarrayunstack_tensorlistfromtensor", "type": "DT_VARIANT"}, {"name": "decoder_lstm_33_while_lstm_cell_4_matmul_readvariableop_resource", "type": "DT_FLOAT"}, {"name": "decoder_lstm_33_while_lstm_cell_4_matmul_1_readvariableop_resource", "type": "DT_FLOAT"}, {"name": "decoder_lstm_33_while_lstm_cell_4_biasadd_readvariableop_resource", "type": "DT_FLOAT"}], "isStateful": true, "controlOutput": ["decoder/lstm_33/while/lstm_cell_4/MatMul/ReadVariableOp", "decoder/lstm_33/while/lstm_cell_4/BiasAdd/ReadVariableOp", "decoder/lstm_33/while/lstm_cell_4/MatMul_1/ReadVariableOp"]}, "nodeDef": [{"name": "__inference_decoder_lstm_33_while_body_4140_frozen_58455/decoder/lstm_33/while/add/y", "op": "Const", "attr": {"value": {"tensor": {"dtype": "DT_INT32", "tensorShape": {}}}, "dtype": {"type": "DT_INT32"}}}, {"name": "__inference_decoder_lstm_33_while_body_4140_frozen_58455/decoder/lstm_33/while/lstm_cell_4/split/split_dim", "op": "Const", "attr": {"dtype": {"type": "DT_INT32"}, "value": {"tensor": {"dtype": "DT_INT32", "tensorShape": {}}}}}, {"name": "__inference_decoder_lstm_33_while_body_4140_frozen_58455/decoder/lstm_33/while/TensorArrayV2Read/TensorListGetItem/element_shape", "op": "Const", "attr": {"dtype": {"type": "DT_INT32"}, "value": {"tensor": {"dtype": "DT_INT32", "tensorShape": {"dim": [{"size": "2"}]}}}}}, {"name": "__inference_decoder_lstm_33_while_body_4140_frozen_58455/decoder/lstm_33/while/add_1/y", "op": "Const", "attr": {"value": {"tensor": {"dtype": "DT_INT32", "tensorShape": {}}}, "dtype": {"type": "DT_INT32"}}}, {"name": "decoder/lstm_33/while/lstm_cell_4/MatMul/ReadVariableOp", "op": "Identity", "input": ["decoder_lstm_33_while_lstm_cell_4_matmul_readvariableop_resource_0"], "attr": {"T": {"type": "DT_FLOAT"}}}, {"name": "decoder/lstm_33/while/lstm_cell_4/MatMul_1/ReadVariableOp", "op": "Identity", "input": ["decoder_lstm_33_while_lstm_cell_4_matmul_1_readvariableop_resource_0"], "attr": {"T": {"type": "DT_FLOAT"}}}, {"name": "decoder/lstm_33/while/lstm_cell_4/BiasAdd/ReadVariableOp", "op": "Identity", "input": ["decoder_lstm_33_while_lstm_cell_4_biasadd_readvariableop_resource_0"], "attr": {"T": {"type": "DT_FLOAT"}}}, {"name": "decoder/lstm_33/while/add", "op": "AddV2", "input": ["decoder_lstm_33_while_placeholder", "__inference_decoder_lstm_33_while_body_4140_frozen_58455/decoder/lstm_33/while/add/y:output:0"], "attr": {"T": {"type": "DT_INT32"}}}, {"name": "decoder/lstm_33/while/TensorArrayV2Read/TensorListGetItem", "op": "TensorListGetItem", "input": ["decoder_lstm_33_while_tensorarrayv2read_tensorlistgetitem_decoder_lstm_33_tensorarrayunstack_tensorlistfromtensor_0", "decoder_lstm_33_while_placeholder", "__inference_decoder_lstm_33_while_body_4140_frozen_58455/decoder/lstm_33/while/TensorArrayV2Read/TensorListGetItem/element_shape:output:0"], "attr": {"element_dtype": {"type": "DT_FLOAT"}}}, {"name": "decoder/lstm_33/while/add_1", "op": "AddV2", "input": ["decoder_lstm_33_while_decoder_lstm_33_while_loop_counter", "__inference_decoder_lstm_33_while_body_4140_frozen_58455/decoder/lstm_33/while/add_1/y:output:0"], "attr": {"T": {"type": "DT_INT32"}}}, {"name": "decoder/lstm_33/while/lstm_cell_4/MatMul_1", "op": "MatMul", "input": ["decoder_lstm_33_while_placeholder_2", "decoder/lstm_33/while/lstm_cell_4/MatMul_1/ReadVariableOp:output:0"], "attr": {"transpose_b": {"b": false}, "transpose_a": {"b": false}, "T": {"type": "DT_FLOAT"}}}, {"name": "decoder/lstm_33/while/Identity_1", "op": "Identity", "input": ["decoder_lstm_33_while_decoder_lstm_33_while_maximum_iterations", "^decoder/lstm_33/while/lstm_cell_4/BiasAdd/ReadVariableOp", "^decoder/lstm_33/while/lstm_cell_4/MatMul/ReadVariableOp", "^decoder/lstm_33/while/lstm_cell_4/MatMul_1/ReadVariableOp"], "attr": {"T": {"type": "DT_INT32"}}}, {"name": "decoder/lstm_33/while/Identity_2", "op": "Identity", "input": ["decoder/lstm_33/while/add:z:0", "^decoder/lstm_33/while/lstm_cell_4/BiasAdd/ReadVariableOp", "^decoder/lstm_33/while/lstm_cell_4/MatMul/ReadVariableOp", "^decoder/lstm_33/while/lstm_cell_4/MatMul_1/ReadVariableOp"], "attr": {"T": {"type": "DT_INT32"}}}, {"name": "decoder/lstm_33/while/lstm_cell_4/MatMul", "op": "MatMul", "input": ["decoder/lstm_33/while/TensorArrayV2Read/TensorListGetItem:item:0", "decoder/lstm_33/while/lstm_cell_4/MatMul/ReadVariableOp:output:0"], "attr": {"transpose_b": {"b": false}, "T": {"type": "DT_FLOAT"}, "transpose_a": {"b": false}}}, {"name": "decoder/lstm_33/while/Identity", "op": "Identity", "input": ["decoder/lstm_33/while/add_1:z:0", "^decoder/lstm_33/while/lstm_cell_4/BiasAdd/ReadVariableOp", "^decoder/lstm_33/while/lstm_cell_4/MatMul/ReadVariableOp", "^decoder/lstm_33/while/lstm_cell_4/MatMul_1/ReadVariableOp"], "attr": {"T": {"type": "DT_INT32"}}}, {"name": "decoder/lstm_33/while/lstm_cell_4/add", "op": "AddV2", "input": ["decoder/lstm_33/while/lstm_cell_4/MatMul:product:0", "decoder/lstm_33/while/lstm_cell_4/MatMul_1:product:0"], "attr": {"T": {"type": "DT_FLOAT"}}}, {"name": "decoder/lstm_33/while/lstm_cell_4/BiasAdd", "op": "BiasAdd", "input": ["decoder/lstm_33/while/lstm_cell_4/add:z:0", "decoder/lstm_33/while/lstm_cell_4/BiasAdd/ReadVariableOp:output:0"], "attr": {"data_format": {"s": "TkhXQw=="}, "T": {"type": "DT_FLOAT"}}}, {"name": "decoder/lstm_33/while/lstm_cell_4/ArithmeticOptimizer/_decoder/lstm_33/while/lstm_cell_4/Sigmoid_split", "op": "Sigmoid", "input": ["decoder/lstm_33/while/lstm_cell_4/BiasAdd:output:0"], "attr": {"T": {"type": "DT_FLOAT"}}}, {"name": "decoder/lstm_33/while/lstm_cell_4/split", "op": "Split", "input": ["__inference_decoder_lstm_33_while_body_4140_frozen_58455/decoder/lstm_33/while/lstm_cell_4/split/split_dim:output:0", "decoder/lstm_33/while/lstm_cell_4/ArithmeticOptimizer/_decoder/lstm_33/while/lstm_cell_4/Sigmoid_split:y:0"], "attr": {"T": {"type": "DT_FLOAT"}, "num_split": {"i": "4"}}}, {"name": "decoder/lstm_33/while/lstm_cell_4/mul", "op": "Mul", "input": ["decoder/lstm_33/while/lstm_cell_4/split:output:1", "decoder_lstm_33_while_placeholder_3"], "attr": {"T": {"type": "DT_FLOAT"}}}, {"name": "decoder/lstm_33/while/lstm_cell_4/mul_1", "op": "Mul", "input": ["decoder/lstm_33/while/lstm_cell_4/split:output:0", "decoder/lstm_33/while/lstm_cell_4/split:output:2"], "attr": {"T": {"type": "DT_FLOAT"}}}, {"name": "decoder/lstm_33/while/lstm_cell_4/add_1", "op": "AddV2", "input": ["decoder/lstm_33/while/lstm_cell_4/mul:z:0", "decoder/lstm_33/while/lstm_cell_4/mul_1:z:0"], "attr": {"T": {"type": "DT_FLOAT"}}}, {"name": "decoder/lstm_33/while/lstm_cell_4/Sigmoid_4", "op": "Sigmoid", "input": ["decoder/lstm_33/while/lstm_cell_4/add_1:z:0"], "attr": {"T": {"type": "DT_FLOAT"}}}, {"name": "decoder/lstm_33/while/lstm_cell_4/mul_2", "op": "Mul", "input": ["decoder/lstm_33/while/lstm_cell_4/split:output:3", "decoder/lstm_33/while/lstm_cell_4/Sigmoid_4:y:0"], "attr": {"T": {"type": "DT_FLOAT"}}}, {"name": "decoder/lstm_33/while/TensorArrayV2Write/TensorListSetItem", "op": "TensorListSetItem", "input": ["decoder_lstm_33_while_placeholder_1", "decoder_lstm_33_while_placeholder", "decoder/lstm_33/while/lstm_cell_4/mul_2:z:0"], "attr": {"element_dtype": {"type": "DT_FLOAT"}}}], "ret": {"decoder_lstm_33_while_identity_2": "decoder/lstm_33/while/Identity_2:output:0", "decoder_lstm_33_while_lstm_cell_4_matmul_1_readvariableop_resource": "decoder_lstm_33_while_lstm_cell_4_matmul_1_readvariableop_resource_0", "decoder_lstm_33_while_identity_5": "decoder/lstm_33/while/lstm_cell_4/add_1:z:0", "decoder_lstm_33_while_decoder_lstm_33_strided_slice_1": "decoder_lstm_33_while_decoder_lstm_33_strided_slice_1_0", "decoder_lstm_33_while_identity_4": "decoder/lstm_33/while/lstm_cell_4/mul_2:z:0", "decoder_lstm_33_while_lstm_cell_4_matmul_readvariableop_resource": "decoder_lstm_33_while_lstm_cell_4_matmul_readvariableop_resource_0", "decoder_lstm_33_while_identity_1": "decoder/lstm_33/while/Identity_1:output:0", "decoder_lstm_33_while_lstm_cell_4_biasadd_readvariableop_resource": "decoder_lstm_33_while_lstm_cell_4_biasadd_readvariableop_resource_0", "decoder_lstm_33_while_tensorarrayv2read_tensorlistgetitem_decoder_lstm_33_tensorarrayunstack_tensorlistfromtensor": "decoder_lstm_33_while_tensorarrayv2read_tensorlistgetitem_decoder_lstm_33_tensorarrayunstack_tensorlistfromtensor_0", "decoder_lstm_33_while_identity": "decoder/lstm_33/while/Identity:output:0", "decoder_lstm_33_while_identity_3": "decoder/lstm_33/while/TensorArrayV2Write/TensorListSetItem:output_handle:0"}, "attr": {"_construction_context": {"s": "a0VhZ2VyUnVudGltZQ=="}}, "controlRet": {"decoder/lstm_33/while/lstm_cell_4/BiasAdd/ReadVariableOp": "decoder/lstm_33/while/lstm_cell_4/BiasAdd/ReadVariableOp", "decoder/lstm_33/while/lstm_cell_4/MatMul/ReadVariableOp": "decoder/lstm_33/while/lstm_cell_4/MatMul/ReadVariableOp", "decoder/lstm_33/while/lstm_cell_4/MatMul_1/ReadVariableOp": "decoder/lstm_33/while/lstm_cell_4/MatMul_1/ReadVariableOp"}, "argAttr": {"2": {"attr": {"_output_shapes": {"list": {"shape": [{}]}}}}, "4": {"attr": {"_output_shapes": {"list": {"shape": [{"dim": [{"size": "-1"}, {"size": "9"}]}]}}}}, "1": {"attr": {"_output_shapes": {"list": {"shape": [{}]}}}}, "6": {"attr": {"_output_shapes": {"list": {"shape": [{}]}}}}, "3": {"attr": {"_output_shapes": {"list": {"shape": [{}]}}}}, "5": {"attr": {"_output_shapes": {"list": {"shape": [{"dim": [{"size": "-1"}, {"size": "9"}]}]}}}}, "7": {"attr": {"_output_shapes": {"list": {"shape": [{}]}}}}, "0": {"attr": {"_output_shapes": {"list": {"shape": [{}]}}}}}}, {"signature": {"name": "__inference_decoder_lstm_31_while_cond_4286_frozen_58459", "inputArg": [{"name": "decoder_lstm_31_while_decoder_lstm_31_while_loop_counter", "type": "DT_INT32"}, {"name": "decoder_lstm_31_while_decoder_lstm_31_while_maximum_iterations", "type": "DT_INT32"}, {"name": "decoder_lstm_31_while_placeholder", "type": "DT_INT32"}, {"name": "decoder_lstm_31_while_placeholder_1", "type": "DT_VARIANT"}, {"name": "decoder_lstm_31_while_placeholder_2", "type": "DT_FLOAT"}, {"name": "decoder_lstm_31_while_placeholder_3", "type": "DT_FLOAT"}, {"name": "decoder_lstm_31_while_less_decoder_lstm_31_strided_slice_1", "type": "DT_INT32"}, {"name": "decoder_lstm_31_while_decoder_lstm_31_while_cond_4286___redundant_placeholder0", "type": "DT_VARIANT"}, {"name": "decoder_lstm_31_while_decoder_lstm_31_while_cond_4286___redundant_placeholder1", "type": "DT_FLOAT"}, {"name": "decoder_lstm_31_while_decoder_lstm_31_while_cond_4286___redundant_placeholder2", "type": "DT_FLOAT"}, {"name": "decoder_lstm_31_while_decoder_lstm_31_while_cond_4286___redundant_placeholder3", "type": "DT_FLOAT"}], "outputArg": [{"name": "decoder_lstm_31_while_identity", "type": "DT_BOOL"}]}, "nodeDef": [{"name": "decoder/lstm_31/while/Less", "op": "Less", "input": ["decoder_lstm_31_while_placeholder", "decoder_lstm_31_while_less_decoder_lstm_31_strided_slice_1"], "attr": {"T": {"type": "DT_INT32"}}}], "ret": {"decoder_lstm_31_while_identity": "decoder/lstm_31/while/Less:z:0"}, "attr": {"_construction_context": {"s": "a0VhZ2VyUnVudGltZQ=="}}, "argAttr": {"2": {"attr": {"_output_shapes": {"list": {"shape": [{}]}}}}, "5": {"attr": {"_output_shapes": {"list": {"shape": [{"dim": [{"size": "-1"}, {"size": "9"}]}]}}}}, "7": {"attr": {"_output_shapes": {"list": {"shape": [{"unknownRank": true}]}}}}, "4": {"attr": {"_output_shapes": {"list": {"shape": [{"dim": [{"size": "-1"}, {"size": "9"}]}]}}}}, "1": {"attr": {"_output_shapes": {"list": {"shape": [{}]}}}}, "6": {"attr": {"_output_shapes": {"list": {"shape": [{}]}}}}, "3": {"attr": {"_output_shapes": {"list": {"shape": [{}]}}}}, "0": {"attr": {"_output_shapes": {"list": {"shape": [{}]}}}}}}, {"signature": {"name": "__inference_decoder_lstm_33_while_cond_4139_frozen_58450", "inputArg": [{"name": "decoder_lstm_33_while_decoder_lstm_33_while_loop_counter", "type": "DT_INT32"}, {"name": "decoder_lstm_33_while_decoder_lstm_33_while_maximum_iterations", "type": "DT_INT32"}, {"name": "decoder_lstm_33_while_placeholder", "type": "DT_INT32"}, {"name": "decoder_lstm_33_while_placeholder_1", "type": "DT_VARIANT"}, {"name": "decoder_lstm_33_while_placeholder_2", "type": "DT_FLOAT"}, {"name": "decoder_lstm_33_while_placeholder_3", "type": "DT_FLOAT"}, {"name": "decoder_lstm_33_while_less_decoder_lstm_33_strided_slice_1", "type": "DT_INT32"}, {"name": "decoder_lstm_33_while_decoder_lstm_33_while_cond_4139___redundant_placeholder0", "type": "DT_VARIANT"}, {"name": "decoder_lstm_33_while_decoder_lstm_33_while_cond_4139___redundant_placeholder1", "type": "DT_FLOAT"}, {"name": "decoder_lstm_33_while_decoder_lstm_33_while_cond_4139___redundant_placeholder2", "type": "DT_FLOAT"}, {"name": "decoder_lstm_33_while_decoder_lstm_33_while_cond_4139___redundant_placeholder3", "type": "DT_FLOAT"}], "outputArg": [{"name": "decoder_lstm_33_while_identity", "type": "DT_BOOL"}]}, "nodeDef": [{"name": "decoder/lstm_33/while/Less", "op": "Less", "input": ["decoder_lstm_33_while_placeholder", "decoder_lstm_33_while_less_decoder_lstm_33_strided_slice_1"], "attr": {"T": {"type": "DT_INT32"}}}], "ret": {"decoder_lstm_33_while_identity": "decoder/lstm_33/while/Less:z:0"}, "attr": {"_construction_context": {"s": "a0VhZ2VyUnVudGltZQ=="}}, "argAttr": {"2": {"attr": {"_output_shapes": {"list": {"shape": [{}]}}}}, "7": {"attr": {"_output_shapes": {"list": {"shape": [{"unknownRank": true}]}}}}, "0": {"attr": {"_output_shapes": {"list": {"shape": [{}]}}}}, "5": {"attr": {"_output_shapes": {"list": {"shape": [{"dim": [{"size": "-1"}, {"size": "9"}]}]}}}}, "3": {"attr": {"_output_shapes": {"list": {"shape": [{}]}}}}, "6": {"attr": {"_output_shapes": {"list": {"shape": [{}]}}}}, "1": {"attr": {"_output_shapes": {"list": {"shape": [{}]}}}}, "4": {"attr": {"_output_shapes": {"list": {"shape": [{"dim": [{"size": "-1"}, {"size": "9"}]}]}}}}}}, {"signature": {"name": "__inference_while_cond_2852_44134", "inputArg": [{"name": "while_while_loop_counter", "type": "DT_INT32"}, {"name": "while_while_maximum_iterations", "type": "DT_INT32"}, {"name": "while_placeholder", "type": "DT_INT32"}, {"name": "while_placeholder_1", "type": "DT_VARIANT"}, {"name": "while_placeholder_2", "type": "DT_FLOAT"}, {"name": "while_placeholder_3", "type": "DT_FLOAT"}, {"name": "while_less_strided_slice", "type": "DT_INT32"}, {"name": "while_while_cond_2852___redundant_placeholder0", "type": "DT_VARIANT"}, {"name": "while_while_cond_2852___redundant_placeholder1", "type": "DT_FLOAT"}, {"name": "while_while_cond_2852___redundant_placeholder2", "type": "DT_FLOAT"}, {"name": "while_while_cond_2852___redundant_placeholder3", "type": "DT_FLOAT"}], "outputArg": [{"name": "while_identity", "type": "DT_BOOL"}]}, "nodeDef": [{"name": "while/Less", "op": "Less", "input": ["while_placeholder", "while_less_strided_slice"], "attr": {"T": {"type": "DT_INT32"}}}], "ret": {"while_identity": "while/Less:z:0"}, "attr": {"_construction_context": {"s": "a0VhZ2VyUnVudGltZQ=="}}, "argAttr": {"1": {"attr": {"_output_shapes": {"list": {"shape": [{}]}}}}, "8": {"attr": {"_output_shapes": {"list": {"shape": [{"unknownRank": true}]}}}}, "7": {"attr": {"_output_shapes": {"list": {"shape": [{"unknownRank": true}]}}}}, "2": {"attr": {"_output_shapes": {"list": {"shape": [{}]}}}}, "5": {"attr": {"_output_shapes": {"list": {"shape": [{"dim": [{"size": "-1"}, {"size": "512"}]}]}}}}, "0": {"attr": {"_output_shapes": {"list": {"shape": [{}]}}}}, "6": {"attr": {"_output_shapes": {"list": {"shape": [{}]}}}}, "9": {"attr": {"_output_shapes": {"list": {"shape": [{"unknownRank": true}]}}}}, "4": {"attr": {"_output_shapes": {"list": {"shape": [{"dim": [{"size": "-1"}, {"size": "512"}]}]}}}}, "3": {"attr": {"_output_shapes": {"list": {"shape": [{}]}}}}, "10": {"attr": {"_output_shapes": {"list": {"shape": [{"unknownRank": true}]}}}}}}, {"signature": {"name": "__inference_while_body_2420_32079", "inputArg": [{"name": "while_while_loop_counter", "type": "DT_INT32"}, {"name": "while_while_maximum_iterations", "type": "DT_INT32"}, {"name": "while_placeholder", "type": "DT_INT32"}, {"name": "while_placeholder_1", "type": "DT_VARIANT"}, {"name": "while_placeholder_2", "type": "DT_FLOAT"}, {"name": "while_placeholder_3", "type": "DT_FLOAT"}, {"name": "while_strided_slice_0", "type": "DT_INT32"}, {"name": "while_tensorarrayv2read_tensorlistgetitem_tensorarrayunstack_tensorlistfromtensor_0", "type": "DT_VARIANT"}, {"name": "while_matmul_kernel_0", "type": "DT_FLOAT"}, {"name": "while_matmul_1_recurrent_kernel_0", "type": "DT_FLOAT"}, {"name": "while_biasadd_bias_0", "type": "DT_FLOAT"}], "outputArg": [{"name": "while_identity", "type": "DT_INT32"}, {"name": "while_identity_1", "type": "DT_INT32"}, {"name": "while_identity_2", "type": "DT_INT32"}, {"name": "while_identity_3", "type": "DT_VARIANT"}, {"name": "while_identity_4", "type": "DT_FLOAT"}, {"name": "while_identity_5", "type": "DT_FLOAT"}, {"name": "while_strided_slice", "type": "DT_INT32"}, {"name": "while_tensorarrayv2read_tensorlistgetitem_tensorarrayunstack_tensorlistfromtensor", "type": "DT_VARIANT"}, {"name": "while_matmul_kernel", "type": "DT_FLOAT"}, {"name": "while_matmul_1_recurrent_kernel", "type": "DT_FLOAT"}, {"name": "while_biasadd_bias", "type": "DT_FLOAT"}]}, "nodeDef": [{"name": "__inference_while_body_2420_32079/while/add_2/y", "op": "Const", "attr": {"dtype": {"type": "DT_INT32"}, "value": {"tensor": {"dtype": "DT_INT32", "tensorShape": {}}}}}, {"name": "__inference_while_body_2420_32079/while/split/split_dim", "op": "Const", "attr": {"dtype": {"type": "DT_INT32"}, "value": {"tensor": {"dtype": "DT_INT32", "tensorShape": {}}}}}, {"name": "__inference_while_body_2420_32079/while/TensorArrayV2Read/TensorListGetItem/element_shape", "op": "Const", "attr": {"dtype": {"type": "DT_INT32"}, "value": {"tensor": {"dtype": "DT_INT32", "tensorShape": {"dim": [{"size": "2"}]}}}}}, {"name": "__inference_while_body_2420_32079/while/add_3/y", "op": "Const", "attr": {"value": {"tensor": {"dtype": "DT_INT32", "tensorShape": {}}}, "dtype": {"type": "DT_INT32"}}}, {"name": "while/MatMul_1", "op": "MatMul", "input": ["while_placeholder_2", "while_matmul_1_recurrent_kernel_0"], "attr": {"transpose_b": {"b": false}, "T": {"type": "DT_FLOAT"}, "transpose_a": {"b": false}}}, {"name": "while/add_2", "op": "AddV2", "input": ["while_placeholder", "__inference_while_body_2420_32079/while/add_2/y:output:0"], "attr": {"T": {"type": "DT_INT32"}}}, {"name": "while/TensorArrayV2Read/TensorListGetItem", "op": "TensorListGetItem", "input": ["while_tensorarrayv2read_tensorlistgetitem_tensorarrayunstack_tensorlistfromtensor_0", "while_placeholder", "__inference_while_body_2420_32079/while/TensorArrayV2Read/TensorListGetItem/element_shape:output:0"], "attr": {"element_dtype": {"type": "DT_FLOAT"}}}, {"name": "while/add_3", "op": "AddV2", "input": ["while_while_loop_counter", "__inference_while_body_2420_32079/while/add_3/y:output:0"], "attr": {"T": {"type": "DT_INT32"}}}, {"name": "while/MatMul", "op": "MatMul", "input": ["while/TensorArrayV2Read/TensorListGetItem:item:0", "while_matmul_kernel_0"], "attr": {"T": {"type": "DT_FLOAT"}, "transpose_b": {"b": false}, "transpose_a": {"b": false}}}, {"name": "while/add", "op": "AddV2", "input": ["while/MatMul:product:0", "while/MatMul_1:product:0"], "attr": {"T": {"type": "DT_FLOAT"}}}, {"name": "while/BiasAdd", "op": "BiasAdd", "input": ["while/add:z:0", "while_biasadd_bias_0"], "attr": {"T": {"type": "DT_FLOAT"}, "data_format": {"s": "TkhXQw=="}}}, {"name": "while/split", "op": "Split", "input": ["__inference_while_body_2420_32079/while/split/split_dim:output:0", "while/BiasAdd:output:0"], "attr": {"T": {"type": "DT_FLOAT"}, "num_split": {"i": "4"}}}, {"name": "while/Sigmoid", "op": "Sigmoid", "input": ["while/split:output:0"], "attr": {"T": {"type": "DT_FLOAT"}}}, {"name": "while/Sigmoid_1", "op": "Sigmoid", "input": ["while/split:output:1"], "attr": {"T": {"type": "DT_FLOAT"}}}, {"name": "while/Tanh", "op": "Tanh", "input": ["while/split:output:2"], "attr": {"T": {"type": "DT_FLOAT"}}}, {"name": "while/Sigmoid_2", "op": "Sigmoid", "input": ["while/split:output:3"], "attr": {"T": {"type": "DT_FLOAT"}}}, {"name": "while/mul", "op": "Mul", "input": ["while/Sigmoid_1:y:0", "while_placeholder_3"], "attr": {"T": {"type": "DT_FLOAT"}}}, {"name": "while/mul_1", "op": "Mul", "input": ["while/Sigmoid:y:0", "while/Tanh:y:0"], "attr": {"T": {"type": "DT_FLOAT"}}}, {"name": "while/add_1", "op": "AddV2", "input": ["while/mul:z:0", "while/mul_1:z:0"], "attr": {"T": {"type": "DT_FLOAT"}}}, {"name": "while/Tanh_1", "op": "Tanh", "input": ["while/add_1:z:0"], "attr": {"T": {"type": "DT_FLOAT"}}}, {"name": "while/mul_2", "op": "Mul", "input": ["while/Sigmoid_2:y:0", "while/Tanh_1:y:0"], "attr": {"T": {"type": "DT_FLOAT"}}}, {"name": "while/TensorArrayV2Write/TensorListSetItem", "op": "TensorListSetItem", "input": ["while_placeholder_1", "while_placeholder", "while/mul_2:z:0"], "attr": {"element_dtype": {"type": "DT_FLOAT"}}}], "ret": {"while_tensorarrayv2read_tensorlistgetitem_tensorarrayunstack_tensorlistfromtensor": "while_tensorarrayv2read_tensorlistgetitem_tensorarrayunstack_tensorlistfromtensor_0", "while_strided_slice": "while_strided_slice_0", "while_matmul_1_recurrent_kernel": "while_matmul_1_recurrent_kernel_0", "while_identity_1": "while_while_maximum_iterations", "while_identity": "while/add_3:z:0", "while_identity_2": "while/add_2:z:0", "while_biasadd_bias": "while_biasadd_bias_0", "while_identity_3": "while/TensorArrayV2Write/TensorListSetItem:output_handle:0", "while_identity_4": "while/mul_2:z:0", "while_matmul_kernel": "while_matmul_kernel_0", "while_identity_5": "while/add_1:z:0"}, "attr": {"_construction_context": {"s": "a0VhZ2VyUnVudGltZQ=="}}, "argAttr": {"0": {"attr": {"_output_shapes": {"list": {"shape": [{}]}}}}, "2": {"attr": {"_output_shapes": {"list": {"shape": [{}]}}}}, "5": {"attr": {"_output_shapes": {"list": {"shape": [{"dim": [{"size": "-1"}, {"size": "512"}]}]}}}}, "8": {"attr": {"_output_shapes": {"list": {"shape": [{"dim": [{"size": "512"}, {"size": "2048"}]}]}}}}, "7": {"attr": {"_output_shapes": {"list": {"shape": [{}]}}}}, "10": {"attr": {"_output_shapes": {"list": {"shape": [{"dim": [{"size": "2048"}]}]}}}}, "1": {"attr": {"_output_shapes": {"list": {"shape": [{}]}}}}, "4": {"attr": {"_output_shapes": {"list": {"shape": [{"dim": [{"size": "-1"}, {"size": "512"}]}]}}}}, "3": {"attr": {"_output_shapes": {"list": {"shape": [{}]}}}}, "6": {"attr": {"_output_shapes": {"list": {"shape": [{}]}}}}, "9": {"attr": {"_output_shapes": {"list": {"shape": [{"dim": [{"size": "512"}, {"size": "2048"}]}]}}}}}}, {"signature": {"name": "__inference_while_body_3719_40131", "inputArg": [{"name": "while_while_loop_counter", "type": "DT_INT32"}, {"name": "while_while_maximum_iterations", "type": "DT_INT32"}, {"name": "while_placeholder", "type": "DT_INT32"}, {"name": "while_placeholder_1", "type": "DT_VARIANT"}, {"name": "while_placeholder_2", "type": "DT_FLOAT"}, {"name": "while_placeholder_3", "type": "DT_FLOAT"}, {"name": "while_strided_slice_0", "type": "DT_INT32"}, {"name": "while_tensorarrayv2read_tensorlistgetitem_tensorarrayunstack_tensorlistfromtensor_0", "type": "DT_VARIANT"}, {"name": "while_matmul_kernel_0", "type": "DT_FLOAT"}, {"name": "while_matmul_1_recurrent_kernel_0", "type": "DT_FLOAT"}, {"name": "while_biasadd_bias_0", "type": "DT_FLOAT"}], "outputArg": [{"name": "while_identity", "type": "DT_INT32"}, {"name": "while_identity_1", "type": "DT_INT32"}, {"name": "while_identity_2", "type": "DT_INT32"}, {"name": "while_identity_3", "type": "DT_VARIANT"}, {"name": "while_identity_4", "type": "DT_FLOAT"}, {"name": "while_identity_5", "type": "DT_FLOAT"}, {"name": "while_strided_slice", "type": "DT_INT32"}, {"name": "while_tensorarrayv2read_tensorlistgetitem_tensorarrayunstack_tensorlistfromtensor", "type": "DT_VARIANT"}, {"name": "while_matmul_kernel", "type": "DT_FLOAT"}, {"name": "while_matmul_1_recurrent_kernel", "type": "DT_FLOAT"}, {"name": "while_biasadd_bias", "type": "DT_FLOAT"}]}, "nodeDef": [{"name": "__inference_while_body_3719_40131/while/add_2/y", "op": "Const", "attr": {"value": {"tensor": {"dtype": "DT_INT32", "tensorShape": {}}}, "dtype": {"type": "DT_INT32"}}}, {"name": "__inference_while_body_3719_40131/while/split/split_dim", "op": "Const", "attr": {"dtype": {"type": "DT_INT32"}, "value": {"tensor": {"dtype": "DT_INT32", "tensorShape": {}}}}}, {"name": "__inference_while_body_3719_40131/while/TensorArrayV2Read/TensorListGetItem/element_shape", "op": "Const", "attr": {"dtype": {"type": "DT_INT32"}, "value": {"tensor": {"dtype": "DT_INT32", "tensorShape": {"dim": [{"size": "2"}]}}}}}, {"name": "__inference_while_body_3719_40131/while/add_3/y", "op": "Const", "attr": {"value": {"tensor": {"dtype": "DT_INT32", "tensorShape": {}}}, "dtype": {"type": "DT_INT32"}}}, {"name": "while/MatMul_1", "op": "MatMul", "input": ["while_placeholder_2", "while_matmul_1_recurrent_kernel_0"], "attr": {"transpose_a": {"b": false}, "T": {"type": "DT_FLOAT"}, "transpose_b": {"b": false}}}, {"name": "while/add_2", "op": "AddV2", "input": ["while_placeholder", "__inference_while_body_3719_40131/while/add_2/y:output:0"], "attr": {"T": {"type": "DT_INT32"}}}, {"name": "while/TensorArrayV2Read/TensorListGetItem", "op": "TensorListGetItem", "input": ["while_tensorarrayv2read_tensorlistgetitem_tensorarrayunstack_tensorlistfromtensor_0", "while_placeholder", "__inference_while_body_3719_40131/while/TensorArrayV2Read/TensorListGetItem/element_shape:output:0"], "attr": {"element_dtype": {"type": "DT_FLOAT"}}}, {"name": "while/add_3", "op": "AddV2", "input": ["while_while_loop_counter", "__inference_while_body_3719_40131/while/add_3/y:output:0"], "attr": {"T": {"type": "DT_INT32"}}}, {"name": "while/MatMul", "op": "MatMul", "input": ["while/TensorArrayV2Read/TensorListGetItem:item:0", "while_matmul_kernel_0"], "attr": {"transpose_b": {"b": false}, "T": {"type": "DT_FLOAT"}, "transpose_a": {"b": false}}}, {"name": "while/add", "op": "AddV2", "input": ["while/MatMul:product:0", "while/MatMul_1:product:0"], "attr": {"T": {"type": "DT_FLOAT"}}}, {"name": "while/BiasAdd", "op": "BiasAdd", "input": ["while/add:z:0", "while_biasadd_bias_0"], "attr": {"data_format": {"s": "TkhXQw=="}, "T": {"type": "DT_FLOAT"}}}, {"name": "while/split", "op": "Split", "input": ["__inference_while_body_3719_40131/while/split/split_dim:output:0", "while/BiasAdd:output:0"], "attr": {"T": {"type": "DT_FLOAT"}, "num_split": {"i": "4"}}}, {"name": "while/Sigmoid", "op": "Sigmoid", "input": ["while/split:output:0"], "attr": {"T": {"type": "DT_FLOAT"}}}, {"name": "while/Sigmoid_1", "op": "Sigmoid", "input": ["while/split:output:1"], "attr": {"T": {"type": "DT_FLOAT"}}}, {"name": "while/Tanh", "op": "Tanh", "input": ["while/split:output:2"], "attr": {"T": {"type": "DT_FLOAT"}}}, {"name": "while/Sigmoid_2", "op": "Sigmoid", "input": ["while/split:output:3"], "attr": {"T": {"type": "DT_FLOAT"}}}, {"name": "while/mul", "op": "Mul", "input": ["while/Sigmoid_1:y:0", "while_placeholder_3"], "attr": {"T": {"type": "DT_FLOAT"}}}, {"name": "while/mul_1", "op": "Mul", "input": ["while/Sigmoid:y:0", "while/Tanh:y:0"], "attr": {"T": {"type": "DT_FLOAT"}}}, {"name": "while/add_1", "op": "AddV2", "input": ["while/mul:z:0", "while/mul_1:z:0"], "attr": {"T": {"type": "DT_FLOAT"}}}, {"name": "while/Tanh_1", "op": "Tanh", "input": ["while/add_1:z:0"], "attr": {"T": {"type": "DT_FLOAT"}}}, {"name": "while/mul_2", "op": "Mul", "input": ["while/Sigmoid_2:y:0", "while/Tanh_1:y:0"], "attr": {"T": {"type": "DT_FLOAT"}}}, {"name": "while/TensorArrayV2Write/TensorListSetItem", "op": "TensorListSetItem", "input": ["while_placeholder_1", "while_placeholder", "while/mul_2:z:0"], "attr": {"element_dtype": {"type": "DT_FLOAT"}}}], "ret": {"while_identity_2": "while/add_2:z:0", "while_identity_3": "while/TensorArrayV2Write/TensorListSetItem:output_handle:0", "while_tensorarrayv2read_tensorlistgetitem_tensorarrayunstack_tensorlistfromtensor": "while_tensorarrayv2read_tensorlistgetitem_tensorarrayunstack_tensorlistfromtensor_0", "while_strided_slice": "while_strided_slice_0", "while_biasadd_bias": "while_biasadd_bias_0", "while_identity": "while/add_3:z:0", "while_identity_5": "while/add_1:z:0", "while_identity_4": "while/mul_2:z:0", "while_matmul_kernel": "while_matmul_kernel_0", "while_matmul_1_recurrent_kernel": "while_matmul_1_recurrent_kernel_0", "while_identity_1": "while_while_maximum_iterations"}, "attr": {"_construction_context": {"s": "a0VhZ2VyUnVudGltZQ=="}}, "argAttr": {"4": {"attr": {"_output_shapes": {"list": {"shape": [{"dim": [{"size": "-1"}, {"size": "9"}]}]}}}}, "9": {"attr": {"_output_shapes": {"list": {"shape": [{"dim": [{"size": "9"}, {"size": "36"}]}]}}}}, "6": {"attr": {"_output_shapes": {"list": {"shape": [{}]}}}}, "1": {"attr": {"_output_shapes": {"list": {"shape": [{}]}}}}, "8": {"attr": {"_output_shapes": {"list": {"shape": [{"dim": [{"size": "512"}, {"size": "36"}]}]}}}}, "3": {"attr": {"_output_shapes": {"list": {"shape": [{}]}}}}, "10": {"attr": {"_output_shapes": {"list": {"shape": [{"dim": [{"size": "36"}]}]}}}}, "0": {"attr": {"_output_shapes": {"list": {"shape": [{}]}}}}, "5": {"attr": {"_output_shapes": {"list": {"shape": [{"dim": [{"size": "-1"}, {"size": "9"}]}]}}}}, "7": {"attr": {"_output_shapes": {"list": {"shape": [{}]}}}}, "2": {"attr": {"_output_shapes": {"list": {"shape": [{}]}}}}}}, {"signature": {"name": "__inference_while_cond_3718_32331", "inputArg": [{"name": "while_while_loop_counter", "type": "DT_INT32"}, {"name": "while_while_maximum_iterations", "type": "DT_INT32"}, {"name": "while_placeholder", "type": "DT_INT32"}, {"name": "while_placeholder_1", "type": "DT_VARIANT"}, {"name": "while_placeholder_2", "type": "DT_FLOAT"}, {"name": "while_placeholder_3", "type": "DT_FLOAT"}, {"name": "while_less_strided_slice", "type": "DT_INT32"}, {"name": "while_while_cond_3718___redundant_placeholder0", "type": "DT_VARIANT"}, {"name": "while_while_cond_3718___redundant_placeholder1", "type": "DT_FLOAT"}, {"name": "while_while_cond_3718___redundant_placeholder2", "type": "DT_FLOAT"}, {"name": "while_while_cond_3718___redundant_placeholder3", "type": "DT_FLOAT"}], "outputArg": [{"name": "while_identity", "type": "DT_BOOL"}]}, "nodeDef": [{"name": "while/Less", "op": "Less", "input": ["while_placeholder", "while_less_strided_slice"], "attr": {"T": {"type": "DT_INT32"}}}], "ret": {"while_identity": "while/Less:z:0"}, "attr": {"_construction_context": {"s": "a0VhZ2VyUnVudGltZQ=="}}, "argAttr": {"5": {"attr": {"_output_shapes": {"list": {"shape": [{"dim": [{"size": "-1"}, {"size": "9"}]}]}}}}, "0": {"attr": {"_output_shapes": {"list": {"shape": [{}]}}}}, "6": {"attr": {"_output_shapes": {"list": {"shape": [{}]}}}}, "9": {"attr": {"_output_shapes": {"list": {"shape": [{"unknownRank": true}]}}}}, "4": {"attr": {"_output_shapes": {"list": {"shape": [{"dim": [{"size": "-1"}, {"size": "9"}]}]}}}}, "3": {"attr": {"_output_shapes": {"list": {"shape": [{}]}}}}, "10": {"attr": {"_output_shapes": {"list": {"shape": [{"unknownRank": true}]}}}}, "1": {"attr": {"_output_shapes": {"list": {"shape": [{}]}}}}, "7": {"attr": {"_output_shapes": {"list": {"shape": [{"unknownRank": true}]}}}}, "8": {"attr": {"_output_shapes": {"list": {"shape": [{"unknownRank": true}]}}}}, "2": {"attr": {"_output_shapes": {"list": {"shape": [{}]}}}}}}, {"signature": {"name": "__inference_while_body_2853_42537", "inputArg": [{"name": "while_while_loop_counter", "type": "DT_INT32"}, {"name": "while_while_maximum_iterations", "type": "DT_INT32"}, {"name": "while_placeholder", "type": "DT_INT32"}, {"name": "while_placeholder_1", "type": "DT_VARIANT"}, {"name": "while_placeholder_2", "type": "DT_FLOAT"}, {"name": "while_placeholder_3", "type": "DT_FLOAT"}, {"name": "while_strided_slice_0", "type": "DT_INT32"}, {"name": "while_tensorarrayv2read_tensorlistgetitem_tensorarrayunstack_tensorlistfromtensor_0", "type": "DT_VARIANT"}, {"name": "while_matmul_kernel_0", "type": "DT_FLOAT"}, {"name": "while_matmul_1_recurrent_kernel_0", "type": "DT_FLOAT"}, {"name": "while_biasadd_bias_0", "type": "DT_FLOAT"}], "outputArg": [{"name": "while_identity", "type": "DT_INT32"}, {"name": "while_identity_1", "type": "DT_INT32"}, {"name": "while_identity_2", "type": "DT_INT32"}, {"name": "while_identity_3", "type": "DT_VARIANT"}, {"name": "while_identity_4", "type": "DT_FLOAT"}, {"name": "while_identity_5", "type": "DT_FLOAT"}, {"name": "while_strided_slice", "type": "DT_INT32"}, {"name": "while_tensorarrayv2read_tensorlistgetitem_tensorarrayunstack_tensorlistfromtensor", "type": "DT_VARIANT"}, {"name": "while_matmul_kernel", "type": "DT_FLOAT"}, {"name": "while_matmul_1_recurrent_kernel", "type": "DT_FLOAT"}, {"name": "while_biasadd_bias", "type": "DT_FLOAT"}]}, "nodeDef": [{"name": "__inference_while_body_2853_42537/while/add_2/y", "op": "Const", "attr": {"value": {"tensor": {"dtype": "DT_INT32", "tensorShape": {}}}, "dtype": {"type": "DT_INT32"}}}, {"name": "__inference_while_body_2853_42537/while/split/split_dim", "op": "Const", "attr": {"value": {"tensor": {"dtype": "DT_INT32", "tensorShape": {}}}, "dtype": {"type": "DT_INT32"}}}, {"name": "__inference_while_body_2853_42537/while/TensorArrayV2Read/TensorListGetItem/element_shape", "op": "Const", "attr": {"dtype": {"type": "DT_INT32"}, "value": {"tensor": {"dtype": "DT_INT32", "tensorShape": {"dim": [{"size": "2"}]}}}}}, {"name": "__inference_while_body_2853_42537/while/add_3/y", "op": "Const", "attr": {"dtype": {"type": "DT_INT32"}, "value": {"tensor": {"dtype": "DT_INT32", "tensorShape": {}}}}}, {"name": "while/MatMul_1", "op": "MatMul", "input": ["while_placeholder_2", "while_matmul_1_recurrent_kernel_0"], "attr": {"T": {"type": "DT_FLOAT"}, "transpose_a": {"b": false}, "transpose_b": {"b": false}}}, {"name": "while/add_2", "op": "AddV2", "input": ["while_placeholder", "__inference_while_body_2853_42537/while/add_2/y:output:0"], "attr": {"T": {"type": "DT_INT32"}}}, {"name": "while/TensorArrayV2Read/TensorListGetItem", "op": "TensorListGetItem", "input": ["while_tensorarrayv2read_tensorlistgetitem_tensorarrayunstack_tensorlistfromtensor_0", "while_placeholder", "__inference_while_body_2853_42537/while/TensorArrayV2Read/TensorListGetItem/element_shape:output:0"], "attr": {"element_dtype": {"type": "DT_FLOAT"}}}, {"name": "while/add_3", "op": "AddV2", "input": ["while_while_loop_counter", "__inference_while_body_2853_42537/while/add_3/y:output:0"], "attr": {"T": {"type": "DT_INT32"}}}, {"name": "while/MatMul", "op": "MatMul", "input": ["while/TensorArrayV2Read/TensorListGetItem:item:0", "while_matmul_kernel_0"], "attr": {"T": {"type": "DT_FLOAT"}, "transpose_a": {"b": false}, "transpose_b": {"b": false}}}, {"name": "while/add", "op": "AddV2", "input": ["while/MatMul:product:0", "while/MatMul_1:product:0"], "attr": {"T": {"type": "DT_FLOAT"}}}, {"name": "while/BiasAdd", "op": "BiasAdd", "input": ["while/add:z:0", "while_biasadd_bias_0"], "attr": {"T": {"type": "DT_FLOAT"}, "data_format": {"s": "TkhXQw=="}}}, {"name": "while/split", "op": "Split", "input": ["__inference_while_body_2853_42537/while/split/split_dim:output:0", "while/BiasAdd:output:0"], "attr": {"num_split": {"i": "4"}, "T": {"type": "DT_FLOAT"}}}, {"name": "while/Sigmoid", "op": "Sigmoid", "input": ["while/split:output:0"], "attr": {"T": {"type": "DT_FLOAT"}}}, {"name": "while/Sigmoid_1", "op": "Sigmoid", "input": ["while/split:output:1"], "attr": {"T": {"type": "DT_FLOAT"}}}, {"name": "while/Tanh", "op": "Tanh", "input": ["while/split:output:2"], "attr": {"T": {"type": "DT_FLOAT"}}}, {"name": "while/Sigmoid_2", "op": "Sigmoid", "input": ["while/split:output:3"], "attr": {"T": {"type": "DT_FLOAT"}}}, {"name": "while/mul", "op": "Mul", "input": ["while/Sigmoid_1:y:0", "while_placeholder_3"], "attr": {"T": {"type": "DT_FLOAT"}}}, {"name": "while/mul_1", "op": "Mul", "input": ["while/Sigmoid:y:0", "while/Tanh:y:0"], "attr": {"T": {"type": "DT_FLOAT"}}}, {"name": "while/add_1", "op": "AddV2", "input": ["while/mul:z:0", "while/mul_1:z:0"], "attr": {"T": {"type": "DT_FLOAT"}}}, {"name": "while/Tanh_1", "op": "Tanh", "input": ["while/add_1:z:0"], "attr": {"T": {"type": "DT_FLOAT"}}}, {"name": "while/mul_2", "op": "Mul", "input": ["while/Sigmoid_2:y:0", "while/Tanh_1:y:0"], "attr": {"T": {"type": "DT_FLOAT"}}}, {"name": "while/TensorArrayV2Write/TensorListSetItem", "op": "TensorListSetItem", "input": ["while_placeholder_1", "while_placeholder", "while/mul_2:z:0"], "attr": {"element_dtype": {"type": "DT_FLOAT"}}}], "ret": {"while_matmul_kernel": "while_matmul_kernel_0", "while_biasadd_bias": "while_biasadd_bias_0", "while_identity_3": "while/TensorArrayV2Write/TensorListSetItem:output_handle:0", "while_tensorarrayv2read_tensorlistgetitem_tensorarrayunstack_tensorlistfromtensor": "while_tensorarrayv2read_tensorlistgetitem_tensorarrayunstack_tensorlistfromtensor_0", "while_identity_4": "while/mul_2:z:0", "while_identity_2": "while/add_2:z:0", "while_identity_1": "while_while_maximum_iterations", "while_strided_slice": "while_strided_slice_0", "while_identity": "while/add_3:z:0", "while_identity_5": "while/add_1:z:0", "while_matmul_1_recurrent_kernel": "while_matmul_1_recurrent_kernel_0"}, "attr": {"_construction_context": {"s": "a0VhZ2VyUnVudGltZQ=="}}, "argAttr": {"10": {"attr": {"_output_shapes": {"list": {"shape": [{"dim": [{"size": "2048"}]}]}}}}, "3": {"attr": {"_output_shapes": {"list": {"shape": [{}]}}}}, "6": {"attr": {"_output_shapes": {"list": {"shape": [{}]}}}}, "9": {"attr": {"_output_shapes": {"list": {"shape": [{"dim": [{"size": "512"}, {"size": "2048"}]}]}}}}, "5": {"attr": {"_output_shapes": {"list": {"shape": [{"dim": [{"size": "-1"}, {"size": "512"}]}]}}}}, "7": {"attr": {"_output_shapes": {"list": {"shape": [{}]}}}}, "0": {"attr": {"_output_shapes": {"list": {"shape": [{}]}}}}, "2": {"attr": {"_output_shapes": {"list": {"shape": [{}]}}}}, "8": {"attr": {"_output_shapes": {"list": {"shape": [{"dim": [{"size": "512"}, {"size": "2048"}]}]}}}}, "1": {"attr": {"_output_shapes": {"list": {"shape": [{}]}}}}, "4": {"attr": {"_output_shapes": {"list": {"shape": [{"dim": [{"size": "-1"}, {"size": "512"}]}]}}}}}}]}, "versions": {"producer": 716, "minConsumer": 12}}, "weightsManifest": [{"paths": ["group1-shard1of7.bin", "group1-shard2of7.bin", "group1-shard3of7.bin", "group1-shard4of7.bin", "group1-shard5of7.bin", "group1-shard6of7.bin", "group1-shard7of7.bin"], "weights": [{"name": "StatefulPartitionedCall/decoder/lstm_31/TensorArrayV2Stack/TensorListStack/element_shape", "shape": [2], "dtype": "int32"}, {"name": "StatefulPartitionedCall/decoder/lstm_31/transpose_1/perm", "shape": [3], "dtype": "int32"}, {"name": "StatefulPartitionedCall/decoder/lstm_33/TensorArrayV2Stack/TensorListStack/element_shape", "shape": [2], "dtype": "int32"}, {"name": "StatefulPartitionedCall/decoder/lstm_33/transpose_1/perm", "shape": [3], "dtype": "int32"}, {"name": "StatefulPartitionedCall/decoder/lstm_35/PartitionedCall/while/loop_counter", "shape": [], "dtype": "int32"}, {"name": "StatefulPartitionedCall/decoder/lstm_35/PartitionedCall/while/maximum_iterations", "shape": [], "dtype": "int32"}, {"name": "StatefulPartitionedCall/decoder/lstm_35/PartitionedCall/time", "shape": [], "dtype": "int32"}, {"name": "StatefulPartitionedCall/decoder/lstm_35/PartitionedCall/TensorArrayV2_1/element_shape", "shape": [2], "dtype": "int32"}, {"name": "StatefulPartitionedCall/decoder/lstm_35/zeros/packed/1", "shape": [], "dtype": "int32"}, {"name": "StatefulPartitionedCall/decoder/lstm_35/zeros/Const", "shape": [], "dtype": "float32"}, {"name": "StatefulPartitionedCall/decoder/lstm_34/PartitionedCall/transpose_1/perm", "shape": [3], "dtype": "int32"}, {"name": "StatefulPartitionedCall/decoder/lstm_35/strided_slice/stack", "shape": [1], "dtype": "int32"}, {"name": "StatefulPartitionedCall/decoder/lstm_35/strided_slice/stack_1", "shape": [1], "dtype": "int32"}, {"name": "StatefulPartitionedCall/decoder/lstm_35/strided_slice/stack_2", "shape": [1], "dtype": "int32"}, {"name": "StatefulPartitionedCall/decoder/lstm_35/zeros_1/packed/1", "shape": [], "dtype": "int32"}, {"name": "StatefulPartitionedCall/decoder/lstm_35/zeros_1/Const", "shape": [], "dtype": "float32"}, {"name": "StatefulPartitionedCall/decoder/lstm_35/PartitionedCall/strided_slice/stack", "shape": [1], "dtype": "int32"}, {"name": "StatefulPartitionedCall/decoder/lstm_35/PartitionedCall/strided_slice/stack_1", "shape": [1], "dtype": "int32"}, {"name": "StatefulPartitionedCall/decoder/lstm_35/PartitionedCall/strided_slice/stack_2", "shape": [1], "dtype": "int32"}, {"name": "StatefulPartitionedCall/decoder/lstm_34/PartitionedCall/while/loop_counter", "shape": [], "dtype": "int32"}, {"name": "StatefulPartitionedCall/decoder/lstm_34/PartitionedCall/while/maximum_iterations", "shape": [], "dtype": "int32"}, {"name": "StatefulPartitionedCall/decoder/lstm_34/PartitionedCall/time", "shape": [], "dtype": "int32"}, {"name": "StatefulPartitionedCall/decoder/lstm_34/PartitionedCall/TensorArrayV2_1/element_shape", "shape": [2], "dtype": "int32"}, {"name": "StatefulPartitionedCall/decoder/lstm_34/zeros/packed/1", "shape": [], "dtype": "int32"}, {"name": "StatefulPartitionedCall/decoder/lstm_34/zeros/Const", "shape": [], "dtype": "float32"}, {"name": "StatefulPartitionedCall/decoder/lstm_34/strided_slice/stack", "shape": [1], "dtype": "int32"}, {"name": "StatefulPartitionedCall/decoder/lstm_34/strided_slice/stack_1", "shape": [1], "dtype": "int32"}, {"name": "StatefulPartitionedCall/decoder/lstm_34/strided_slice/stack_2", "shape": [1], "dtype": "int32"}, {"name": "StatefulPartitionedCall/decoder/lstm_34/zeros_1/packed/1", "shape": [], "dtype": "int32"}, {"name": "StatefulPartitionedCall/decoder/lstm_34/zeros_1/Const", "shape": [], "dtype": "float32"}, {"name": "StatefulPartitionedCall/decoder/lstm_34/PartitionedCall/strided_slice/stack", "shape": [1], "dtype": "int32"}, {"name": "StatefulPartitionedCall/decoder/lstm_34/PartitionedCall/strided_slice/stack_1", "shape": [1], "dtype": "int32"}, {"name": "StatefulPartitionedCall/decoder/lstm_34/PartitionedCall/strided_slice/stack_2", "shape": [1], "dtype": "int32"}, {"name": "StatefulPartitionedCall/decoder/lstm_34/PartitionedCall/transpose/perm", "shape": [3], "dtype": "int32"}, {"name": "StatefulPartitionedCall/decoder/lstm_34/PartitionedCall/TensorArrayUnstack/TensorListFromTensor/element_shape", "shape": [2], "dtype": "int32"}, {"name": "StatefulPartitionedCall/decoder/lstm_34/Read/ReadVariableOp", "shape": [512, 2048], "dtype": "float32"}, {"name": "StatefulPartitionedCall/decoder/lstm_34/Read_1/ReadVariableOp", "shape": [512, 2048], "dtype": "float32"}, {"name": "StatefulPartitionedCall/decoder/lstm_34/Read_2/ReadVariableOp", "shape": [2048], "dtype": "float32"}, {"name": "StatefulPartitionedCall/decoder/lstm_34/PartitionedCall/TensorArrayV2Stack/TensorListStack/element_shape", "shape": [2], "dtype": "int32"}, {"name": "StatefulPartitionedCall/decoder/lstm_35/PartitionedCall/TensorArrayUnstack/TensorListFromTensor/element_shape", "shape": [2], "dtype": "int32"}, {"name": "StatefulPartitionedCall/decoder/lstm_35/Read/ReadVariableOp", "shape": [512, 36], "dtype": "float32"}, {"name": "StatefulPartitionedCall/decoder/lstm_35/Read_1/ReadVariableOp", "shape": [9, 36], "dtype": "float32"}, {"name": "StatefulPartitionedCall/decoder/lstm_35/Read_2/ReadVariableOp", "shape": [36], "dtype": "float32"}, {"name": "StatefulPartitionedCall/decoder/lstm_35/PartitionedCall/TensorArrayV2Stack/TensorListStack/element_shape", "shape": [2], "dtype": "int32"}, {"name": "StatefulPartitionedCall/decoder/lstm_35/PartitionedCall/transpose_1/perm", "shape": [3], "dtype": "int32"}, {"name": "StatefulPartitionedCall/decoder/lstm_31/while/loop_counter", "shape": [], "dtype": "int32"}, {"name": "StatefulPartitionedCall/decoder/lstm_31/while/maximum_iterations", "shape": [], "dtype": "int32"}, {"name": "StatefulPartitionedCall/decoder/lstm_31/time", "shape": [], "dtype": "int32"}, {"name": "StatefulPartitionedCall/decoder/lstm_31/TensorArrayV2_1/element_shape", "shape": [2], "dtype": "int32"}, {"name": "StatefulPartitionedCall/decoder/lstm_31/zeros/packed/1", "shape": [], "dtype": "int32"}, {"name": "StatefulPartitionedCall/decoder/lstm_31/zeros/Const", "shape": [], "dtype": "float32"}, {"name": "StatefulPartitionedCall/decoder/lstm_30/PartitionedCall/transpose_1/perm", "shape": [3], "dtype": "int32"}, {"name": "StatefulPartitionedCall/decoder/lstm_31/strided_slice/stack", "shape": [1], "dtype": "int32"}, {"name": "StatefulPartitionedCall/decoder/lstm_31/strided_slice/stack_1", "shape": [1], "dtype": "int32"}, {"name": "StatefulPartitionedCall/decoder/lstm_31/strided_slice/stack_2", "shape": [1], "dtype": "int32"}, {"name": "StatefulPartitionedCall/decoder/lstm_31/zeros_1/packed/1", "shape": [], "dtype": "int32"}, {"name": "StatefulPartitionedCall/decoder/lstm_31/zeros_1/Const", "shape": [], "dtype": "float32"}, {"name": "StatefulPartitionedCall/decoder/lstm_31/strided_slice_1/stack", "shape": [1], "dtype": "int32"}, {"name": "StatefulPartitionedCall/decoder/lstm_31/strided_slice_1/stack_1", "shape": [1], "dtype": "int32"}, {"name": "StatefulPartitionedCall/decoder/lstm_31/strided_slice_1/stack_2", "shape": [1], "dtype": "int32"}, {"name": "StatefulPartitionedCall/decoder/lstm_30/PartitionedCall/while/loop_counter", "shape": [], "dtype": "int32"}, {"name": "StatefulPartitionedCall/decoder/lstm_30/PartitionedCall/while/maximum_iterations", "shape": [], "dtype": "int32"}, {"name": "StatefulPartitionedCall/decoder/lstm_30/PartitionedCall/time", "shape": [], "dtype": "int32"}, {"name": "StatefulPartitionedCall/decoder/lstm_30/PartitionedCall/TensorArrayV2_1/element_shape", "shape": [2], "dtype": "int32"}, {"name": "StatefulPartitionedCall/decoder/lstm_30/zeros/packed/1", "shape": [], "dtype": "int32"}, {"name": "StatefulPartitionedCall/decoder/lstm_30/zeros/Const", "shape": [], "dtype": "float32"}, {"name": "StatefulPartitionedCall/decoder/lstm_30/strided_slice/stack", "shape": [1], "dtype": "int32"}, {"name": "StatefulPartitionedCall/decoder/lstm_30/strided_slice/stack_1", "shape": [1], "dtype": "int32"}, {"name": "StatefulPartitionedCall/decoder/lstm_30/strided_slice/stack_2", "shape": [1], "dtype": "int32"}, {"name": "StatefulPartitionedCall/decoder/lstm_30/zeros_1/packed/1", "shape": [], "dtype": "int32"}, {"name": "StatefulPartitionedCall/decoder/lstm_30/zeros_1/Const", "shape": [], "dtype": "float32"}, {"name": "StatefulPartitionedCall/decoder/lstm_30/PartitionedCall/strided_slice/stack", "shape": [1], "dtype": "int32"}, {"name": "StatefulPartitionedCall/decoder/lstm_30/PartitionedCall/strided_slice/stack_1", "shape": [1], "dtype": "int32"}, {"name": "StatefulPartitionedCall/decoder/lstm_30/PartitionedCall/strided_slice/stack_2", "shape": [1], "dtype": "int32"}, {"name": "StatefulPartitionedCall/decoder/lstm_30/PartitionedCall/transpose/perm", "shape": [3], "dtype": "int32"}, {"name": "StatefulPartitionedCall/decoder/lstm_30/PartitionedCall/TensorArrayUnstack/TensorListFromTensor/element_shape", "shape": [2], "dtype": "int32"}, {"name": "StatefulPartitionedCall/decoder/lstm_30/Read/ReadVariableOp", "shape": [512, 2048], "dtype": "float32"}, {"name": "StatefulPartitionedCall/decoder/lstm_30/Read_1/ReadVariableOp", "shape": [512, 2048], "dtype": "float32"}, {"name": "StatefulPartitionedCall/decoder/lstm_30/Read_2/ReadVariableOp", "shape": [2048], "dtype": "float32"}, {"name": "StatefulPartitionedCall/decoder/lstm_30/PartitionedCall/TensorArrayV2Stack/TensorListStack/element_shape", "shape": [2], "dtype": "int32"}, {"name": "StatefulPartitionedCall/decoder/lstm_31/TensorArrayUnstack/TensorListFromTensor/element_shape", "shape": [2], "dtype": "int32"}, {"name": "unknown_16", "shape": [512, 36], "dtype": "float32"}, {"name": "unknown_17", "shape": [9, 36], "dtype": "float32"}, {"name": "unknown_18", "shape": [36], "dtype": "float32"}, {"name": "StatefulPartitionedCall/decoder/lstm_33/while/loop_counter", "shape": [], "dtype": "int32"}, {"name": "StatefulPartitionedCall/decoder/lstm_33/while/maximum_iterations", "shape": [], "dtype": "int32"}, {"name": "StatefulPartitionedCall/decoder/lstm_33/time", "shape": [], "dtype": "int32"}, {"name": "StatefulPartitionedCall/decoder/lstm_33/TensorArrayV2_1/element_shape", "shape": [2], "dtype": "int32"}, {"name": "StatefulPartitionedCall/decoder/lstm_33/zeros/packed/1", "shape": [], "dtype": "int32"}, {"name": "StatefulPartitionedCall/decoder/lstm_33/zeros/Const", "shape": [], "dtype": "float32"}, {"name": "StatefulPartitionedCall/decoder/lstm_32/PartitionedCall/transpose_1/perm", "shape": [3], "dtype": "int32"}, {"name": "StatefulPartitionedCall/decoder/lstm_33/strided_slice/stack", "shape": [1], "dtype": "int32"}, {"name": "StatefulPartitionedCall/decoder/lstm_33/strided_slice/stack_1", "shape": [1], "dtype": "int32"}, {"name": "StatefulPartitionedCall/decoder/lstm_33/strided_slice/stack_2", "shape": [1], "dtype": "int32"}, {"name": "StatefulPartitionedCall/decoder/lstm_33/zeros_1/packed/1", "shape": [], "dtype": "int32"}, {"name": "StatefulPartitionedCall/decoder/lstm_33/zeros_1/Const", "shape": [], "dtype": "float32"}, {"name": "StatefulPartitionedCall/decoder/lstm_33/strided_slice_1/stack", "shape": [1], "dtype": "int32"}, {"name": "StatefulPartitionedCall/decoder/lstm_33/strided_slice_1/stack_1", "shape": [1], "dtype": "int32"}, {"name": "StatefulPartitionedCall/decoder/lstm_33/strided_slice_1/stack_2", "shape": [1], "dtype": "int32"}, {"name": "StatefulPartitionedCall/decoder/lstm_32/PartitionedCall/while/loop_counter", "shape": [], "dtype": "int32"}, {"name": "StatefulPartitionedCall/decoder/lstm_32/PartitionedCall/while/maximum_iterations", "shape": [], "dtype": "int32"}, {"name": "StatefulPartitionedCall/decoder/lstm_32/PartitionedCall/time", "shape": [], "dtype": "int32"}, {"name": "StatefulPartitionedCall/decoder/lstm_32/PartitionedCall/TensorArrayV2_1/element_shape", "shape": [2], "dtype": "int32"}, {"name": "StatefulPartitionedCall/decoder/lstm_32/zeros/packed/1", "shape": [], "dtype": "int32"}, {"name": "StatefulPartitionedCall/decoder/lstm_32/zeros/Const", "shape": [], "dtype": "float32"}, {"name": "StatefulPartitionedCall/decoder/lstm_32/strided_slice/stack", "shape": [1], "dtype": "int32"}, {"name": "StatefulPartitionedCall/decoder/lstm_32/strided_slice/stack_1", "shape": [1], "dtype": "int32"}, {"name": "StatefulPartitionedCall/decoder/lstm_32/strided_slice/stack_2", "shape": [1], "dtype": "int32"}, {"name": "StatefulPartitionedCall/decoder/lstm_32/zeros_1/packed/1", "shape": [], "dtype": "int32"}, {"name": "StatefulPartitionedCall/decoder/lstm_32/zeros_1/Const", "shape": [], "dtype": "float32"}, {"name": "StatefulPartitionedCall/decoder/lstm_32/PartitionedCall/strided_slice/stack", "shape": [1], "dtype": "int32"}, {"name": "StatefulPartitionedCall/decoder/lstm_32/PartitionedCall/strided_slice/stack_1", "shape": [1], "dtype": "int32"}, {"name": "StatefulPartitionedCall/decoder/lstm_32/PartitionedCall/strided_slice/stack_2", "shape": [1], "dtype": "int32"}, {"name": "StatefulPartitionedCall/decoder/dense_11/MatMul/ReadVariableOp", "shape": [512, 512], "dtype": "float32"}, {"name": "StatefulPartitionedCall/decoder/dense_11/BiasAdd/ReadVariableOp", "shape": [512], "dtype": "float32"}, {"name": "StatefulPartitionedCall/decoder/repeat_vector_2/ExpandDims/dim", "shape": [], "dtype": "int32"}, {"name": "StatefulPartitionedCall/decoder/repeat_vector_2/stack", "shape": [3], "dtype": "int32"}, {"name": "StatefulPartitionedCall/decoder/lstm_32/PartitionedCall/transpose/perm", "shape": [3], "dtype": "int32"}, {"name": "StatefulPartitionedCall/decoder/lstm_32/PartitionedCall/TensorArrayUnstack/TensorListFromTensor/element_shape", "shape": [2], "dtype": "int32"}, {"name": "StatefulPartitionedCall/decoder/lstm_32/Read/ReadVariableOp", "shape": [512, 2048], "dtype": "float32"}, {"name": "StatefulPartitionedCall/decoder/lstm_32/Read_1/ReadVariableOp", "shape": [512, 2048], "dtype": "float32"}, {"name": "StatefulPartitionedCall/decoder/lstm_32/Read_2/ReadVariableOp", "shape": [2048], "dtype": "float32"}, {"name": "StatefulPartitionedCall/decoder/lstm_32/PartitionedCall/TensorArrayV2Stack/TensorListStack/element_shape", "shape": [2], "dtype": "int32"}, {"name": "StatefulPartitionedCall/decoder/lstm_33/TensorArrayUnstack/TensorListFromTensor/element_shape", "shape": [2], "dtype": "int32"}, {"name": "unknown_13", "shape": [512, 36], "dtype": "float32"}, {"name": "unknown_14", "shape": [9, 36], "dtype": "float32"}, {"name": "unknown_15", "shape": [36], "dtype": "float32"}, {"name": "__inference_while_body_3286_50228/while/add_2/y", "shape": [], "dtype": "int32"}, {"name": "__inference_while_body_3286_50228/while/split/split_dim", "shape": [], "dtype": "int32"}, {"name": "__inference_while_body_3286_50228/while/TensorArrayV2Read/TensorListGetItem/element_shape", "shape": [2], "dtype": "int32"}, {"name": "__inference_while_body_3286_50228/while/add_3/y", "shape": [], "dtype": "int32"}, {"name": "__inference_decoder_lstm_31_while_body_4287_frozen_58452/decoder/lstm_31/while/add/y", "shape": [], "dtype": "int32"}, {"name": "__inference_decoder_lstm_31_while_body_4287_frozen_58452/decoder/lstm_31/while/lstm_cell_3/split/split_dim", "shape": [], "dtype": "int32"}, {"name": "__inference_decoder_lstm_31_while_body_4287_frozen_58452/decoder/lstm_31/while/TensorArrayV2Read/TensorListGetItem/element_shape", "shape": [2], "dtype": "int32"}, {"name": "__inference_decoder_lstm_31_while_body_4287_frozen_58452/decoder/lstm_31/while/add_1/y", "shape": [], "dtype": "int32"}, {"name": "__inference_decoder_lstm_33_while_body_4140_frozen_58455/decoder/lstm_33/while/add/y", "shape": [], "dtype": "int32"}, {"name": "__inference_decoder_lstm_33_while_body_4140_frozen_58455/decoder/lstm_33/while/lstm_cell_4/split/split_dim", "shape": [], "dtype": "int32"}, {"name": "__inference_decoder_lstm_33_while_body_4140_frozen_58455/decoder/lstm_33/while/TensorArrayV2Read/TensorListGetItem/element_shape", "shape": [2], "dtype": "int32"}, {"name": "__inference_decoder_lstm_33_while_body_4140_frozen_58455/decoder/lstm_33/while/add_1/y", "shape": [], "dtype": "int32"}, {"name": "__inference_while_body_2420_32079/while/add_2/y", "shape": [], "dtype": "int32"}, {"name": "__inference_while_body_2420_32079/while/split/split_dim", "shape": [], "dtype": "int32"}, {"name": "__inference_while_body_2420_32079/while/TensorArrayV2Read/TensorListGetItem/element_shape", "shape": [2], "dtype": "int32"}, {"name": "__inference_while_body_2420_32079/while/add_3/y", "shape": [], "dtype": "int32"}, {"name": "__inference_while_body_3719_40131/while/add_2/y", "shape": [], "dtype": "int32"}, {"name": "__inference_while_body_3719_40131/while/split/split_dim", "shape": [], "dtype": "int32"}, {"name": "__inference_while_body_3719_40131/while/TensorArrayV2Read/TensorListGetItem/element_shape", "shape": [2], "dtype": "int32"}, {"name": "__inference_while_body_3719_40131/while/add_3/y", "shape": [], "dtype": "int32"}, {"name": "__inference_while_body_2853_42537/while/add_2/y", "shape": [], "dtype": "int32"}, {"name": "__inference_while_body_2853_42537/while/split/split_dim", "shape": [], "dtype": "int32"}, {"name": "__inference_while_body_2853_42537/while/TensorArrayV2Read/TensorListGetItem/element_shape", "shape": [2], "dtype": "int32"}, {"name": "__inference_while_body_2853_42537/while/add_3/y", "shape": [], "dtype": "int32"}]}]}